best_regression_model_mse.pth (torch, 83977 bytes, 7 tensors)

hidden_layer1.weight f4 [128, 74]
00000000: 17ac 9bbd 46f3 503e 0063 22bd 6805 763e
00000010: e487 9e3c 4262 4b3e 88ce 52bf c86b 253f
00000020: fa20 f9bd 77a2 f93d 21c3 50bc df27 d23d
00000030: 8183 c0bd 65fc 05bc c4fc 4a3e 4ec9 b93d
00000040: 9042 dd3c 0d3f c73d f64e 883c e33e e23c
00000050: e228 a0bc 3b10 3b3c 5381 c5bc cb6a 023e
00000060: beab 553d 1c09 663d 8e98 f63d 402a f73d
00000070: 17da 30bc c2f1 0b3e 4498 b03d 1ca5 f93d
00000080: d596 eb3c 0248 8cbc a688 433e 8658 85bd
00000090: 2b6f 073e e97c 1c3c f978 c33d b449 e33d
000000a0: 5a31 cdbd 8fe3 eabd 0c52 d83c 4e72 a6bc
000000b0: 47b8 813d d2b7 a3bd 9e22 053e 7e0c b43a
000000c0: 23c3 9d3d 79ee 043e 6d61 283d 1903 903d
000000d0: 4d39 2a3e e2c8 013d 97d9 06bc 9b0b dcbb
000000e0: f480 ccbd 4b53 a83d 4604 93bb 8a3f 7d3d
000000f0: 39af 8b3d 2dee 13b9 195e 083e 3b32 3d3e
00000100: 7e69 b83d 9a84 7e3d 7ea2 2d3e c7c4 40bd
00000110: 3849 aebd 67ec 763d d2b0 4c3e 5dc9 89bd
00000120: 259e b63c 791e 03be 806f 88bc 79e1 f93e
00000130: ebcd 263d bea7 553f 8308 6aba 24e3 043c
00000140: f24d d9bd 2c3b 4e3b a9d3 84bd ef38 fbbd
00000150: 57c3 93bc a31d bbbe 7809 783d 50f3 1cbc
00000160: b8ca b1bd c2d2 733d 8e35 473e c6a1 b73c
00000170: e349 873d 21a9 a33c 544e 333e 0ed0 65be
00000180: 3d1c de3d a412 63be 6265 563d 2875 b7bc
00000190: 3872 883c 83ff a63d ca41 5c3d ff49 9b3d
000001a0: fc8f a8bb 299d 8c3d 0dfe 843d 2b13 273d
000001b0: 8571 913d 7bda 933c 14cb 10bd 251b a93d
000001c0: 67c9 4b3d ea0c 0dbd 8883 a1be 9394 c13d
000001d0: f77a 9139 1dc9 a33d ca85 b33d a411 68bd
000001e0: 76c9 ba3d fb80 0d3d 7f5d 98bd b707 653d
000001f0: fa05 863d 8bab 1a3e c798 c73d 92f0 d53c
00000200: 9bb8 013d ded3 1abe 4216 1e3d 01d8 b83d
00000210: 20c7 8c3d 5f34 49be c436 a83d 8723 a23b
00000220: 23e4 943d 4b4b ba3d a83a 863c fe9e 55bd
00000230: 79c5 01be 4cca 243d e5dc 13bd aa33 8dbb
00000240: 6025 103d cd7c 1a3c a6cd 13be db6a ed3c
00000250: 85f8 8a3d 94f8 1e3e c340 f339 4d16 b03e
00000260: af2b e0bd f13e c1bd 8854 1640 d55c 9e3d
00000270: e865 81bd 2829 e6bc 7d12 e93d 915a dc3d
00000280: 6a31 c0bd 9699 1c3d a45c 483d 120e 44bd
00000290: 5960 2d3e 579d 923e 5b9e 7b3e 9c22 6b3e
000002a0: d7cf 183e f317 2f3e a587 343d 7bd3 f63d
000002b0: 2227 1e3e c1f5 f73d 7b98 d4bc 78a8 b4bd
000002c0: da5e 843d e438 ee3d 6e44 a13d 20d8 c13d
000002d0: 77cd 9d3d f1c5 2dbd 70c5 c13d a318 393d
000002e0: c66f f23d 752e 053a 7d85 013e 9b01 0b3b
000002f0: e4c3 d63d e78c 903c 86ae efbd 227b 253d
00000300: bb46 1b3e cdbd 103e 2fb0 353e c4e7 20be
00000310: 8cb4 abbc 2ba0 a33d 2edd 973d df35 813d
00000320: 46a1 813d 3df3 06b9 3853 e4bd a2c4 72bd
00000330: 8488 93bc 0d02 873e 1b25 563e 3d2a e53d
00000340: c91e 34be 85ee c2bd e698 54bc 0ddc 893d
00000350: df6e a73d 404b 373e 53e8 f6bc 1e4f 27be
00000360: 5636 793e 7d75 27bd 4550 3cbc 8b9a 1abd
00000370: e3f8 d8bd 78da 76bd 4ad2 58bd b4c4 f13e
00000380: b378 943d f982 033f eaad a7bd b9bc 253e
00000390: 95d6 8b3e 0fb3 133f e901 8c3b a359 0abc
000003a0: ee25 be3d db58 72bc d999 b4bd 967b 143d
000003b0: dffa 8abd 922d 463e 4c27 0f3e b013 a43d
000003c0: c458 933d d2fc 9f3d dee6 e13d 145f ca3d
000003d0: d3df 1e3e 1f52 4e3c b635 5a3e 9cee 85bd
000003e0: 1756 ea3d ac2d 173e a17c 843b 1548 0e3e
000003f0: a90c 473e 8dfe b23d 1b6a db3d abce 71be
-0.07601183 0.20405301 -0.039645195 0.240255 0.019351907 0.19861701 -0.8234639 0.64617586
-0.12164493 0.12189191 -0.012741835 0.10261511 -0.094000824 -0.008177851 0.19822985 0.09071599
0.027009279 0.09728823 0.016639214 0.027617877 -0.019550744 0.011417444 -0.024109518 0.12736051
0.05216574 0.05616103 0.12040816 0.120686054 -0.010794184 0.13666442 0.08622792 0.12189695
0.028758446 -0.01712418 0.19095096 -0.06511025 0.13226001 0.009551265 0.09544558 0.11098042
-0.10019179 -0.114691846 0.02640631 -0.020318177 0.06333976 -0.07994045 0.13001487 0.0013736633
0.07703235 0.12981595 0.041108537 0.07031841 0.16623421 0.031685717 -0.008230588 -0.0067152507
-0.09985533 0.08219012 -0.0044865934 0.061828174 0.068205304 -0.0001410774 0.13317145 0.18476193
0.09004496 0.062138177 0.16956517 -0.04706266 -0.08510059 0.060284045 0.19989327 -0.0672786
0.022292206 -0.12804593 -0.01665473 0.48804834 0.040723722 0.8345908 -0.000892766 0.008110795
-0.1061057 0.0031468375 -0.064856835 -0.122667186 -0.018037481 -0.3654605 0.060555905 -0.009579495
-0.08681244 0.059527166 0.19454023 0.022416007 0.0660589 0.019978108 0.17510349 -0.22442648
0.1084523 -0.2217508 0.05234278 -0.022394732 0.016656026 0.08154204 0.05377368 0.07582473
-0.0051441174 0.068659134 0.06493769 0.040789764 0.0710173 0.018048516 -0.03534992 0.082571305
0.04975262 -0.034436144 -0.31545663 0.094521664 0.0002774817 0.07997344 0.087657526 -0.05665745
0.09120457 0.034546833 -0.07439708 0.05591556 0.06544109 0.15104501 0.09745937 0.02611569
0.031670194 -0.15119883 0.038595445 0.090255745 0.068739176 -0.19648884 0.08213571 0.004948083
0.07270076 0.09096392 0.016385391 -0.05215358 -0.12672986 0.040231988 -0.036099333 -0.0043091374
0.035191894 0.009429169 -0.14433917 0.028981617 0.067856826 0.15524513 0.00046396823 0.34392014
-0.10945832 -0.09435833 2.3489094 0.0773255 -0.06318265 -0.028095797 0.113804795 0.10759462
-0.09384425 0.03823241 0.048916474 -0.04786498 0.16931285 0.28635666 0.24572127 0.22962421
0.14923035 0.1709898 0.044074673 0.120520554 0.15444615 0.12107421 -0.025951615 -0.08821195
0.06463404 0.11631945 0.0787438 0.09465051 0.07705205 -0.0424251 0.09461486 0.04518951
0.11837725 0.000508047 0.12648578 0.0021210674 0.10486582 0.017645312 -0.117032096 0.04040063
0.151637 0.14134903 0.1774299 -0.15713412 -0.020960115 0.07989534 0.074152336 0.06309103
0.063295886 -0.00012869849 -0.11148685 -0.059269555 -0.018009432 0.26368752 0.20912592 0.11189697
-0.17589869 -0.0951815 -0.012975907 0.067314245 0.08175444 0.178998 -0.030140078 -0.16338775
0.24337134 -0.04088353 -0.011493747 -0.03774504 -0.105943464 -0.06026694 -0.052934922 0.47220385
0.07249584 0.51371723 -0.08187468 0.16185273 0.2731215 0.57695097 0.0042726886 -0.008444223
0.09284578 -0.014791693 -0.088184066 0.036250673 -0.06786131 0.19353321 0.13979834 0.080115676
0.07194665 0.078118935 0.110303625 0.09881416 0.1551507 0.012592821 0.21309552 -0.06539652
0.114422016 0.14763516 0.0040431772 0.13894685 0.19438423 0.08739958 0.107135974 -0.23613994

hidden_layer1.bias f4 [128]
00000000: da3d afbf 9279 e6be 8fb6 26bf 9760 a5bf
00000010: 001c 41bf fcdc 88bf 5eaa e13d 4f81 c4bf
00000020: 4721 bcbf 78d0 40bf d6b3 52bf a569 e1bf
00000030: 968e dfbe 510d f4bc ae3e 95bd cd59 67be
00000040: c42b 54bf fbef 43bf 70fc 2abf 4213 e7be
00000050: a89c a3bf bb62 a0be 9b43 9fbf 7f55 e4bf
00000060: 77e6 97be 7a49 a6bf 0984 e7bf ad1f 7bbf
00000070: d7e3 8dbf 978a d9bf f49d 83bf 6cc9 0bbf
00000080: 34e1 ccbf e283 88bf a02a d7bf 4da7 2dbf
00000090: bcdb 74bf c334 b4bf cb50 96bf 9d46 adbf
000000a0: 4761 36bf 3f20 afbf 5683 22bf cf24 c4bd
000000b0: df70 66bf 980b 99bf 8920 c2bf 50a8 82bf
000000c0: f908 b8be c329 b9bf 8caf 0bbe a83b bebe
000000d0: d46c 40bf fbf9 43bf 8abf 43be 6e47 3c3e
000000e0: 3c0f 8bbf e604 343e a6df 6cbf 5692 dbbe
000000f0: 0a4c 51bf f42e babe 35c9 abbf 3ae5 80be
00000100: 2616 8fbf bcb5 bebf a381 60be 4caf f7be
00000110: b58d f8be 3ed6 52bf 4645 38bf ffd0 7bbf
00000120: 0143 a4bf 0cda 7ebf c1aa bcbf 64f1 95bf
00000130: f49b e7be 4c35 70bf 387e a9bf f874 a8bc
00000140: 6930 9abe 5965 8fbd e8f0 7fbf 7b19 003e
00000150: 7a9a 50be ba62 f8be 5399 55bf 1d41 5fbe
00000160: da6a 01bf 274e 44bf c9cb cfbf 3047 2bbf
00000170: 3ae2 e6bf b62b 0ebf c874 75bf 1cb9 1e3e
00000180: 7359 b8be b3df 48bf 62e9 b5bf bea5 98be
00000190: 7cd6 57bf 5e6c 88bf bb09 6fbf 1324 7ebf
000001a0: 51d8 693d 06e0 dbbf dbd1 03bf b3d2 0bc0
000001b0: 76e6 86bf e7dd f8be 2b00 51bf 8d5c 57be
000001c0: ba6d afbf 8142 0dbf 90ba aebf 7dfd a4bf
000001d0: 06dc c3be caaa 93be a45c 93be c56b ddbe
000001e0: 00da 87bf e567 95bf fe8b 5dbf de9e 82bf
000001f0: 21ba f6bf caaf c6be f688 3dbf 79f9 edbe
-1.3690751 -0.45014626 -0.6512231 -1.2920102 -0.7543335 -1.0692439 0.11018823 -1.5351962
-1.4697655 -0.753181 -0.8230566 -1.7610365 -0.43663472 -0.029791506 -0.07287346 -0.2259285
-0.8287928 -0.76538056 -0.6679144 -0.4513188 -1.2782183 -0.31325325 -1.2442507 -1.7838591
-0.29668018 -1.2991173 -1.8087169 -0.9809521 -1.1085156 -1.6995419 -1.0282578 -0.5460422
-1.6006227 -1.0665247 -1.6809883 -0.67833406 -0.9564779 -1.4078602 -1.1743406 -1.3537174
-0.71242183 -1.3681716 -0.6348165 -0.09577333 -0.9001598 -1.1956663 -1.5166179 -1.0207615
-0.35944346 -1.446587 -0.13641185 -0.3715489 -0.7516606 -0.76553315 -0.19116035 0.18386623
-1.0864024 0.17579994 -0.9252876 -0.42885083 -0.8175665 -0.36363947 -1.3420779 -0.25174886
-1.1178634 -1.4899211 -0.21924452 -0.48375928 -0.48545614 -0.8235816 -0.719807 -0.9836578
-1.2832948 -0.99551463 -1.473961 -1.1714292 -0.4523617 -0.93831325 -1.3241644 -0.020563588
-0.3011506 -0.070017524 -0.9997697 0.1250972 -0.20371428 -0.48512822 -0.8343708 -0.21802182
-0.5055367 -0.7668175 -1.6234065 -0.669055 -1.8037789 -0.5553545 -0.9588132 0.15500301
-0.36005744 -0.7846634 -1.4211848 -0.2981395 -0.8431165 -1.0658071 -0.9337422 -0.99273795
0.05709106 -1.7177742 -0.5149209 -2.184735 -1.0539081 -0.48606798 -0.8164088 -0.21031399
-1.3705361 -0.551796 -1.3650684 -1.2889858 -0.38253802 -0.2884124 -0.28781617 -0.43246284
-1.0613403 -1.1672331 -0.86541736 -1.0204732 -1.9275552 -0.3880599 -0.7403711 -0.46479395

hidden_layer2.weight f4 [64, 128]
00000000: f566 113d 9aa4 283e 07cd 81be b243 db3d
00000010: 9e06 00bb 4dc2 943d 2fd4 4b3d 89f6 293d
00000020: ea43 173e c933 b93d e0fe 61bb 15b2 27be
00000030: 4ab6 52bc 0334 4d3e 01e5 863d c6c0 d53d
00000040: 5454 993d 8b79 e0bd a929 aa3c 1c66 223e
00000050: dd90 edbc a5d4 11bc adf5 8b3e e949 6dbe
00000060: a57b 233e 2429 8b3e f445 6bbe da0b 7e3c
00000070: 7b2d 4cba 5df2 b33e 174d 2fbd f826 6b3e
00000080: 41e9 5e3c 387b 88bb a6ae 063e 8e8a 023e
00000090: b095 063e 5707 c4bc 77bc 453e 5705 013e
000000a0: dc35 22bd 124b 63bd efbb eb3d dafa 913c
000000b0: 88d1 973c 078b 963e 01d1 aa3e fcd7 073e
000000c0: ee33 b43b 4fa9 54bd 4a6f b53d 8196 663e
000000d0: 65d9 eb3d 6952 4b3b 8703 c53b 3279 63bc
000000e0: 401e 5b3d 435d 863c 8728 e23c 6f97 b03d
000000f0: f1c8 8f3d 29eb f33d eac0 893e 3192 97bd
00000100: d5b6 263d d6e8 d7bc 3ee4 ec3c f09c 9b3d
00000110: 5968 023e 01d7 a73d 95b4 1dbc 0225 773e
00000120: 1902 833e aa90 28bd 280b 583e d106 5b3e
00000130: 501a 3f3b 0ae9 2b3e d6ad df3d 7977 d5bc
00000140: 185a 4ebd 42dd 233d a15a a83d 2bbf 44bb
00000150: 2ab1 d33d cd2c a1bc 9dee 0e3c d5fb 2b3e
00000160: 7a6f cf3c bcb1 003e 45d0 e13d d313 5dbb
00000170: 3612 adbe ad67 663d 6523 4cbb 6c9d 73bd
00000180: 4ce1 2f3e 0f1e fc3d 7569 463e 34eb 873e
00000190: 6769 3d3e 928a 103e ed82 9dba c19a 833a
000001a0: 8146 13bc 112d e93d d2d5 2cbd 4743 41bf
000001b0: 30c3 fbbc 6651 323d 97a7 923d 886a 343c
000001c0: ccfc 4a3e b8e8 77bd 1e2f 263e 9604 973e
000001d0: dac9 e1bd 8258 1fbc 6b83 b43b 98b4 a63d
000001e0: fb97 a23e a644 aa3b 683a adbc e133 3abb
000001f0: eee6 2abe 11b4 403d 763b 873d fb35 bd3d
00000200: 7f08 55bf 49ba 78bb 10f1 6e3d ba8d c33d
00000210: 2366 0fbf 318a 0dbc 312b 223d 2ba5 77bf
00000220: 2711 853e df9c b2bc 5ad2 8fbf 909a 3ebf
00000230: f0ce 13be a945 483c 5358 873d d470 533d
00000240: 6b9c d6bd ed0d 833d e6ec d6be d025 22bd
00000250: 84ef 213d 6d24 263c 21d8 043d 24bd 26be
00000260: bcec c3bc 9778 253e e231 28bf 12a4 fabe
00000270: 09a2 213e 4b94 29be 91fd 403d 3973 bcbe
00000280: 7f55 76bf 03a0 183e b20a 233f 0f3d 363b
00000290: 908c de3d 19b9 15bf 79fb 0c3d 5f11 06bc
000002a0: 7892 4a3d b16d 143f b706 4dbf d6ce 4dbc
000002b0: 1fe2 f1bb 0e1f 8c3d 70a0 a0bf b201 bf3c
000002c0: 4108 0d3e dac5 3dbf 85ca 943d 2892 b63d
000002d0: 6301 083e e189 98bf 39b9 b43e d5aa 90bc
000002e0: a2a7 143e de02 aabf ddae b1bf 6123 9c3b
000002f0: a249 723e 7813 d9bd 140b 183d ed77 e63c
00000300: 189e 093e b893 91be bca5 2dbf f26e f3bc
00000310: b9a1 e3be 7904 16be cab4 4fbf c341 133a
00000320: bf22 a53c 3d48 943e 1957 123e f065 fabc
00000330: 2979 163d 8a4b 11be 950c 7a3e c293 b13c
00000340: 1f19 8f3d c1dd 64bf ded7 6d3d 954f 3f3d
00000350: 4682 ad3d 14d6 5dbf ab46 153e 2b59 173d
00000360: f067 1bc0 4164 b4bb 7c20 883e c5dc 27bd
00000370: e056 33bf 28b0 7f3d ee9a f33c 859b 263c
00000380: 0ee6 f83e af1f 3d3e 6ccb 9f3d 54c1 cb3c
00000390: 120d 983d 3d3a 8cbd 96b3 ef3c bf74 babc
000003a0: d5d2 fc3d e55f 273c dcd5 69bd a366 5bbf
000003b0: e7da 27bd cf7e 07bc 909a 83be 775d 18bf
000003c0: 3ee6 153e 5890 543d 279f ebbc a40b 0f3e
000003d0: 9d3d 7339 df6e 293e a9ef d0bd 9ce2 49bc
000003e0: c647 cd3c e661 6c3e 3626 b23c 1415 663d
000003f0: f4a8 b23d 318c 7c3d 7017 56bc 811d ce3d
0.035498578 0.1646904 -0.25351736 0.10706271 -0.0019535194 0.072636224 0.0497629 0.04149488
0.14772001 0.0904308 -0.0034484193 -0.16376527 -0.012860844 0.20039372 0.06586648 0.10437159
0.074867874 -0.109606825 0.020771818 0.15859264 -0.02899974 -0.008900796 0.27335873 -0.23172726
0.15965135 0.27179825 -0.22975904 0.015505755 -0.00077887595 0.35145846 -0.042798128 0.22964084
0.013605417 -0.0041650794 0.1315256 0.12748167 0.13143039 -0.023929281 0.19310175 0.12599693
-0.039602146 -0.055491515 0.11510455 0.01781981 0.01853253 0.29402944 0.33362582 0.13265985
0.0054993546 -0.051919278 0.08859117 0.2251835 0.11516074 0.0031024462 0.0060123834 -0.013883876
0.053495646 0.016401893 0.027607216 0.08622634 0.070207484 0.119100876 0.26904994 -0.07400931
0.040701706 -0.026356142 0.028917428 0.07598293 0.12735118 0.081953056 -0.009625574 0.24135211
0.25587538 -0.041153587 0.21098006 0.21389319 0.002915997 0.16788116 0.109218284 -0.026057946
-0.05037889 0.04000593 0.08220411 -0.0030021172 0.10336526 -0.019674683 0.008723882 0.16795285
0.02532171 0.125678 0.110260524 -0.003373374 -0.33802956 0.056251217 -0.0031149026 -0.0594763
0.17175788 0.12310421 0.19376166 0.26546633 0.18497239 0.1411536 -0.0012017168 0.0010040627
-0.008988977 0.11385549 -0.042196102 -0.7549328 -0.030732721 0.04353466 0.071608715 0.011011727
0.19822997 -0.060524672 0.16228911 0.29495686 -0.11024828 -0.009725692 0.0055088303 0.08139914
0.31756577 0.005196172 -0.021146014 -0.002841227 -0.16689655 0.047046725 0.06603138 0.092388116
-0.8321609 -0.0037952831 0.058335364 0.095485166 -0.56015223 -0.008638904 0.03959197 -0.967364
0.2598965 -0.021803318 -1.1236069 -0.74454594 -0.14434409 0.0122236395 0.066086434 0.051621273
-0.10479053 0.063991405 -0.41977614 -0.039586842 0.03953506 0.0101405205 0.03243268 -0.16283089
-0.023916595 0.16159283 -0.65701115 -0.489533 0.15784468 -0.16560476 0.04711682 -0.36806658
-0.96224207 0.1490479 0.63688195 0.002780739 0.10866654 -0.5848556 0.03441951 -0.0081828525
0.04945609 0.57979876 -0.8008837 -0.012561521 -0.007381692 0.06841861 -1.2548962 0.023316238
0.1377268 -0.7413002 0.0726519 0.08914596 0.13281779 -1.1917077 0.35297564 -0.017659584
0.14517072 -1.3282125 -1.3881489 0.0047649597 0.23660901 -0.105994165 0.03711994 0.028133357
0.13439214 -0.28433013 -0.67831016 -0.029715989 -0.44459322 -0.14650144 -0.8113524 0.0005617404
0.02015817 0.28961363 0.14291038 -0.030566186 0.03673664 -0.14188972 0.24418862 0.021676902
0.06987213 -0.8940087 0.058067195 0.046706755 0.08472113 -0.8665478 0.14577739 0.03695027
-2.4282188 -0.0055051153 0.26587284 -0.040982027 -0.70054436 0.062423855 0.029736962 0.010168915
0.48613018 0.18469118 0.078024715 0.02487246 0.07424368 -0.068470456 0.029260438 -0.022760747
0.123449005 0.010215734 -0.057088718 -0.85703486 -0.040980246 -0.00826998 -0.2570386 -0.59517616
0.14638612 0.05189547 -0.028762413 0.13969284 0.00023197239 0.165462 -0.102019615 -0.012322094
0.025058638 0.2308422 0.021746736 0.056172445 0.087236315 0.061657134 -0.013067111 0.10064221

hidden_layer2.bias f4 [64]
00000000: 5d12 c3bb 6a5a febf e284 253d e117 313c
00000010: def3 61be 74eb 4aba 7696 8a3c c151 063f
00000020: abef 6cbe 7ee1 d2be b188 75bd 16a2 173c
00000030: 28b0 d9be cc3f 50be 32f8 63bd 7c89 13bb
00000040: 12a3 0140 fa96 56bd f0be 5cbe 1d0f 77be
00000050: 9f4b 88bf 6cbc e2bd 2cdf 603f 3819 59be
00000060: bf62 4c3e 9898 df3e 4264 db3b 1c31 283e
00000070: e43a 4f3c 0512 06be 1421 623f b90f c13a
00000080: 4368 403b c75e 493e 6354 893e 1649 99bd
00000090: 2892 ce3d bc10 fa3e 773c b43f 3782 f53d
000000a0: b417 de3d b5d2 babe d479 f4ba c36f 60be
000000b0: 4e00 523d 7d4e b63e 33dd 7f3f 1743 5ebf
000000c0: fb28 68be b7e2 89be 14da b8be 1eb9 e0be
000000d0: 6b68 bb3d de62 373e 5ade 4fbe 1896 aebe
000000e0: a406 0d3e 1707 90be 66cc 463e b385 39bf
000000f0: c65a 78be 4ea3 dcbb 59cf a43f cf08 2fbf
-0.005953117 -1.9871342 0.04040993 0.010808916 -0.22065684 -0.0007740774 0.016917448 0.52468497
-0.23138301 -0.41187662 -0.059944812 0.009254953 -0.4251721 -0.20336837 -0.05565662 -0.0022512367
2.025578 -0.052390076 -0.21557212 -0.24126859 -1.0648078 -0.11071095 0.87840533 -0.21201026
0.19959544 0.43671107 0.0066953013 0.16424984 0.012648318 -0.13092811 0.88331723 0.0014729417
0.002935902 0.19665061 0.26822194 -0.07484643 0.10086471 0.48840892 1.4080952 0.11987727
0.10844365 -0.36488882 -0.001865203 -0.21917634 0.05126982 0.35606757 0.999469 -0.8682112
-0.22671883 -0.26930782 -0.3610388 -0.43891233 0.091507755 0.17908809 -0.20299664 -0.34098887
0.13772064 -0.2813041 0.1941391 -0.72469634 -0.24253377 -0.0067333346 1.2875777 -0.68372816

hidden_layer3.weight f4 [32, 64]
00000000: 0f34 8dbd a71c 53be 12c2 cdbc c623 92bd
00000010: efab dbbd 0d3f 85bd 3773 05be 511f a63c
00000020: 25c1 5bbe 6f08 a3bd 3024 e73d 2407 2b3b
00000030: 02a3 f2bd edd2 cbbd ce4d 80be 8361 07bc
00000040: c705 f0bd d76b e1bd 0477 60be 2955 a5bd
00000050: 8bfe 2b3e 4654 6fbe 181c 123e 6f28 3ebe
00000060: 250d 51ba 900c 203e 6b6a 26be 545a ffbd
00000070: 149c 7fbd 32d2 7dbd a787 df3c ca30 b0bc
00000080: 6d71 72bd 7bb1 1f3d af86 8ebd 3b59 5dbc
00000090: b44b 1e3d 2497 37bc aa97 17bb ef8d c4bd
000000a0: 03ca 5ebc 5696 31bd ad26 36bc f1e3 a7bd
000000b0: 79e7 eebd 0bff 6f3c 4dc0 283f 4d15 d33d
000000c0: 27d5 27bd 9690 1ebe 31a7 81be 8963 8abd
000000d0: c469 14be 9eb4 8a3c b523 173d b2f8 f3bd
000000e0: e760 f7bd d555 fcbd 0455 f9bd b756 c83d
000000f0: 7cc6 23be 7110 82ba e7d2 203f 85e2 a63c
00000100: 9926 ba3c 3550 c13d 78ea 2d3c 405b 193d
00000110: 9d0f 4f3e b86b e038 c845 9abc 6ec5 01c0
00000120: 3935 a13d 70b5 b5bc 5a81 8fbc b8cc 213d
00000130: aff4 5dbc facb 063c 6606 d23c 2b23 433d
00000140: dfd5 07bf d939 37bc ceb6 ec3c 7e13 963b
00000150: 55d7 d13c 19f9 023d 3935 a7bf ee8e 863d
00000160: bc24 673e 0f32 103e 0634 b23c 5460 c13d
00000170: 0bdf 503c bb76 c73c 36eb d0bf 35aa b1bc
00000180: cb01 283b da99 6b3d cd4a 35bc f07b c13c
00000190: 51ed 973e 0ed9 1fbd c847 19c0 18e7 9c3d
000001a0: 666e ca3d 7c7c 743d eaf4 f23a 49f9 f93c
000001b0: f1a4 07bd 5abc c13c a0ab 45c0 de8f f93c
000001c0: bcfb ee3c c513 de3d dbf0 163d 5f6f 953d
000001d0: 6b54 3b3d 34a7 843d 1226 703b f6e0 163c
000001e0: 764c 3c3e 1272 be3d 132f 843e 18de 2cc0
000001f0: 2d22 a2bc 35a5 ceba 061e 03c0 d101 35c0
00000200: 42fb d83c 766d b43e df85 b23c 37e5 f83d
00000210: 78de 723e e9c6 153d 74cc ebbb 3430 31be
00000220: 5ebb 8b3c 099c ad3b 902a e73c fcf6 e13b
00000230: bc86 d23d 7f42 ab3d 20c6 da3d 29d2 293d
00000240: ecfc 24bf aad6 7fbc f3d9 cc3d f07c b23d
00000250: 15b5 073e 40a4 803d a333 3bbf 7f96 723d
00000260: 8cef e83e d91f 8f3e 8369 153e d8dd 6c3e
00000270: d45a 763d c501 f43d 60d8 1dbe 36d3 fd3c
00000280: 01e4 7e3d bf07 813e fec6 8c3e df95 bebc
00000290: a019 383f 423d d13d 6bb9 92be 5aae 6d3e
000002a0: 6010 ed3e b7d1 4b3d 3444 853d ff1f cebb
000002b0: a9ca 903d ca6f ba3d cac1 5ec0 0727 bf3c
000002c0: c1c2 72ba aead 983d 8e44 893d cd33 8e3d
000002d0: 8b7a e43d 9b25 943d 7c8a 663d e53b ff3c
000002e0: 6cd7 e43e c243 673d 5818 273f ed48 debe
000002f0: 9fbe dd3b dab9 323d 74d1 d2bf b7e8 ffbe
00000300: df2f 413d 998d 023f f437 6d3d 524e a43d
00000310: 449c 5e3e 20d6 bb3c 19bd c03d 4a5a 52be
00000320: 7a25 493c d6a0 733c 6d86 7c3c 4677 e53c
00000330: b468 ecbc d53f 8a3d 0a26 743d 7534 033d
00000340: 062a 18bf 61d7 b53d 2b33 883d 8852 133d
00000350: 5d94 603c ad43 7d3d f3e7 35bf 710f 593d
00000360: 901f b13e 29f4 8c3e c182 ef3c c754 403e
00000370: 9848 c53c 794b 9d3d 140e 73be ba95 9a3d
00000380: 9fd7 6f3d c319 2c3e ff95 4b3e f163 5c3d
00000390: af4f 1f3f a1d7 573e fd3e 73be cd50 853e
000003a0: 3e6c c33e 4036 663c b94e b8bc 4537 b03d
000003b0: 39f7 5b3e 1970 873d 9264 5ec0 fab1 823d
000003c0: ca4e a13d 9e09 dc3d c74e 9d3d 531e c43d
000003d0: fb1e 123e 48e3 073e 6dcc bd3d a67b c13c
000003e0: 8471 043f cd44 8e3d eff9 0b3f 68f9 0ebf
000003f0: 708d cf3d 9f16 803c 1913 cbbf 45b7 bebe
-0.06894695 -0.20616399 -0.025116954 -0.071357295 -0.10726153 -0.065061666 -0.13032232 0.020278605
-0.21460398 -0.07960593 0.11286199 0.0026096785 -0.118474975 -0.0995234 -0.2505936 -0.008262995
-0.11719852 -0.11006897 -0.21920401 -0.08072884 0.16796319 -0.23371992 0.1426853 -0.18570112
-0.0007974676 0.15629792 -0.16251533 -0.124684006 -0.062404707 -0.061968036 0.027286364 -0.02150764
-0.059190203 0.038987618 -0.069592826 -0.013510044 0.038646415 -0.011205468 -0.002313117 -0.09597384
-0.013597968 -0.043356262 -0.011117619 -0.08197773 -0.11665244 0.014648209 0.6591843 0.10306797
-0.040974762 -0.15484843 -0.2532287 -0.06757266 -0.14493471 0.016931828 0.036899287 -0.11912669
-0.120790295 -0.12321059 -0.121744186 0.097821645 -0.15993685 -0.0009923113 0.6282181 0.020371685
0.022723483 0.094391264 0.010614984 0.03744054 0.202208 0.000107012165 -0.018832102 -2.0276752
0.078714795 -0.022181243 -0.017517734 0.039501876 -0.013547107 0.008227343 0.025637817 0.04764096
-0.53060716 -0.011183226 0.028895762 0.0045799604 0.025615374 0.03197584 -1.3063117 0.065702304
0.22572607 0.14081596 0.021753322 0.09442201 0.01274849 0.024348607 -1.6321781 -0.021687606
0.0025635834 0.05751977 -0.011065197 0.023618668 0.29673246 -0.03902536 -2.3950062 0.07661265
0.09884338 0.05968903 0.0018536125 0.030514376 -0.033116285 0.023649383 -3.0886002 0.030464109
0.02917277 0.108436145 0.03685079 0.07296633 0.045734804 0.06477204 0.0036643785 0.009208908
0.18388543 0.09299101 0.25817165 -2.7010555 -0.019791687 -0.0015765788 -2.0487075 -2.8282359
0.026486997 0.35239762 0.02179235 0.12153094 0.23717678 0.03656665 -0.0071960036 -0.17303544
0.017057117 0.005298142 0.028218538 0.006895898 0.10279605 0.083622925 0.106823206 0.04146019
-0.6444843 -0.015615145 0.10002508 0.08715236 0.13252671 0.06281328 -0.73125666 0.059225556
0.4549526 0.27953985 0.14591031 0.23131502 0.060145214 0.119144 -0.15414572 0.030984502
0.06222916 0.25201222 0.2749557 -0.023264823 0.719141 0.10216762 -0.28657088 0.23211041
0.46301556 0.049760547 0.06507149 -0.0062904353 0.07069904 0.09103353 -3.480578 0.02333404
-0.0009260588 0.07455002 0.06702529 0.06943474 0.11156186 0.07233735 0.056284413 0.03115649
0.44695604 0.056461103 0.6527152 -0.43415013 0.0067671086 0.043634273 -1.647017 -0.49982235
0.047164794 0.5099731 0.05791469 0.08022751 0.21739298 0.022929251 0.094110675 -0.20542255
0.0122770015 0.014869889 0.015412909 0.028010976 -0.02885852 0.06750456 0.05960659 0.03203245
-0.5943912 0.08878971 0.066503845 0.03596738 0.013707248 0.06183212 -0.7105705 0.05299324
0.34594393 0.2753003 0.029237153 0.1878234 0.024082467 0.07680411 -0.23735839 0.07548089
0.05855524 0.16806702 0.19881438 0.05380625 0.6223096 0.2107835 -0.23754497 0.2603821
0.3816852 0.01405102 -0.022498475 0.08604292 0.21481027 0.06613178 -3.4748883 0.063816026
0.07876356 0.10744022 0.07681041 0.095760964 0.1426963 0.13270295 0.09267507 0.02361853
0.5173571 0.069467165 0.54678243 -0.55849314 0.10134399 0.015635787 -1.5865203 -0.372492

hidden_layer3.bias f4 [32]
00000000: 52d1 ab3f 3552 b63f c1fc dd3f 4ba1 e23f
00000010: 44b9 f93f 9dd9 d63f 46b2 803f 0ac9 9c3f
00000020: 8bb6 c63f 45b0 ff3f 6cd2 fe3f 2238 ce3f
00000030: 9130 e03f 0de6 96be 97b2 f63f 24b5 df3f
00000040: 3a51 6b3f a738 d53f 2049 2dbe b750 b53f
00000050: 3ef6 8f3f 2449 673f 450c de3f df6d c03f
00000060: f440 b6be 3621 d73f ba0f d93f d9e6 dc3f
00000070: f59a f73f ecda a33f 265d d23f dfcf da3f
1.3423254 1.4243838 1.7342759 1.7705473 1.9509664 1.678516 1.0054405 1.2248852
1.5524458 1.9975668 1.9907966 1.611088 1.7514821 -0.2947239 1.9273251 1.7477155
0.91920817 1.6657914 -0.16922426 1.4165257 1.1247022 0.9034598 1.7347494 1.503353
-0.3559643 1.680701 1.6957924 1.7257949 1.9344164 1.2801185 1.6434677 1.7094687

output_layer.weight f4 [1, 32]
00000000: e4ea 13bf 0c60 443e 4274 903d dc09 893d
00000010: 5591 913d eefb 8c3d 6bb1 9cbf 6505 20bf
00000020: b8ab fabe ccf6 b03d 20ae 043e e036 8f3d
00000030: e28e 883d b05c 773b 17cb b03d 8fa9 963d
00000040: 730a eabf 2aa0 8a3d 2226 073c a3c7 61bf
00000050: e291 4dbf 45cc 6abf ea64 8c3d 8c8e 20bf
00000060: d6b6 0abf f8b9 893d 4d83 903d 7a23 883d
00000070: 5648 8c3d e83d 8f3d 746f 9d3d 2bb7 903d
-0.5778029 0.19177264 0.070534244 0.06691334 0.07107798 0.06883989 -1.2241644 -0.6250823
-0.48959136 0.08640823 0.12957048 0.069928885 0.06667878 0.0037744455 0.08632486 0.073565595
-1.8284439 0.0676883 0.008248838 -0.88195246 -0.80300725 -0.9171794 0.06855185 -0.6271751
-0.54185236 0.06724924 0.07056294 0.066473916 0.068497345 0.069942296 0.076872736 0.070661865
