regression_model_mse.pth (torch, 83843 bytes, 7 tensors)

hidden_layer1.weight f4 [128, 74]
0	0xbce6e228	-0.028184012
1	0x3e9baa2b	0.30403265
2	0x3b51d570	0.0032018088
3	0x3f431878	0.7620921
4	0xbd158e44	-0.03651263
5	0x3c5429ca	0.012949416
6	0xbc6d8492	-0.014496939
7	0x3e072fe5	0.13201864
8	0xbd898ca2	-0.06716277
9	0xbd9b00f5	-0.07568542
10	0x3d41c5dd	0.047307838
11	0xbeaccf9f	-0.33752152
12	0xbeaceb95	-0.33773485
13	0xbe2e1149	-0.16998781
14	0xbe45f5ba	-0.19332018
15	0x3e29a394	0.16566306
16	0x3e3fcfc3	0.18731599
17	0x3dd01b09	0.101614065
18	0x3da0a51a	0.078439906
19	0x3dc4d105	0.0961018
20	0x3d6c532b	0.057696503
21	0x3d853e1d	0.06505988
22	0x3e0e7124	0.13910347
23	0xbda096d1	-0.07841266
24	0xbc257f7d	-0.010101196
25	0xbe87c23a	-0.2651537
26	0x3becd1ab	0.007227143
27	0x3d7763cc	0.060397908
28	0xbee65218	-0.44984508
29	0x3d6837fa	0.05669401
30	0x3daba092	0.08380236
31	0x3cd485c5	0.025942693
32	0xbd1e3f68	-0.038634688
33	0x3c94952a	0.018137533
34	0x3e19fa4a	0.15036884
35	0x3d894283	0.06702139
36	0x3de7a44b	0.11310633
37	0x3de57ecd	0.11205826
38	0x3c8194ac	0.015817963
39	0xbd9c6e94	-0.076382786
40	0xbe626700	-0.22109604
41	0x3d3f710f	0.04673868
42	0x3c540dc0	0.012942731
43	0x3d9e617c	0.077334374
44	0x3da12854	0.0786902
45	0x3dfa3604	0.12217334
46	0x3df6fd56	0.12060039
47	0xbccd4b48	-0.025060311
48	0xbde4fd7f	-0.11181163
49	0x3df65623	0.12028148
50	0x3c9a4234	0.018830396
51	0xbd93928b	-0.07205685
52	0x3de8b34b	0.113623224
53	0xbdd8e8d9	-0.10591287
54	0xbc2e6ea9	-0.010646501
55	0xbe1a04f8	-0.15040958
56	0x3abfcb2b	0.0014632692
57	0x3d5ac41d	0.053409684
58	0x3ccd4462	0.025057022
59	0x3c806b55	0.01567618
60	0x3e276cff	0.16350172
61	0xbc96b4cc	-0.018396758
62	0xbe2cb032	-0.16864088
63	0x3d34232f	0.043978866
64	0x3ceeddf5	0.029158572
65	0xbc328c7a	-0.01089775
66	0xbdd749e7	-0.10512143
67	0xbcff7345	-0.031182894
68	0xbd8277e3	-0.06370523
69	0xbd2b965e	-0.04189145
70	0x3de09c92	0.109673634
71	0x3c97a422	0.018510882
72	0x3d1d11ac	0.03834693
73	0x3d764d5f	0.06013238
74	0x39b2efdb	0.00034129512
75	0x3e37b748	0.1794101
76	0x3ba37e9f	0.0049894596
77	0x3ebe0876	0.3711583
78	0xbd8cecea	-0.06881125
79	0x3d85bac9	0.06529767
80	0xbf5ce1f0	-0.86282253
81	0x3c292d7a	0.010325784
82	0x3dcb37a8	0.09922725
83	0xbd906521	-0.07050539
84	0xbdf88b6c	-0.121359676
85	0xbdf3a939	-0.11897511
86	0x3daa5857	0.08317631
87	0x3d854d24	0.06508854
88	0x3d0b8759	0.034064624
89	0xbc0948b6	-0.008379152
90	0xbe23ad69	-0.1598412
91	0xbd69dae0	-0.0570935
92	0x3d0dae26	0.03458991
93	0x3ca2ec8e	0.019888189
94	0x3db085a3	0.08619239
95	0x3e012cc3	0.12614731
96	0xbd89cd60	-0.06728625
97	0xbd7cd833	-0.06172962
98	0xbdbb8f97	-0.09158247
99	0x3d51d2e4	0.05122651
100	0xbd964aae	-0.07338463
101	0xbdf07b2e	-0.11742245
102	0xbd76f0fc	-0.060288414
103	0x3d49dd9d	0.049283613
104	0x3d8bb0b7	0.06820815
105	0x3b25ce73	0.0025300055
106	0x3db1c06b	0.08679279
107	0x3d13e425	0.036106247
108	0x3d6b2755	0.057410557
109	0x3d765be5	0.06014623
110	0x3cc8a858	0.024494335
111	0x3dc270b0	0.0949415
112	0x3d8e7b02	0.06957056
113	0xbdb27409	-0.08713538
114	0x3dc7a4b8	0.097482145
115	0x3dd19e80	0.102353096
116	0xbd8ac11e	-0.067751154
117	0x3c9e91fb	0.019356718
118	0x3d2f0d3d	0.042737234
119	0xbd9ad090	-0.075593114
120	0x3c308f68	0.010776378
121	0xbe223e8e	-0.15844175
122	0xbd8e3bd2	-0.069450036
123	0x3d29c14e	0.041444115
124	0x3c12286d	0.008920771
125	0x3e0a67cd	0.1351616
126	0x3db078f7	0.08616822
127	0x3cbc5773	0.022990918
128	0xbde73c0c	-0.1129075
129	0xbd953a53	-0.07286515
130	0xbdeffbbc	-0.117179364
131	0x3cc9c115	0.024628201
132	0x3d83bb8d	0.06432257
133	0x3c00d5a7	0.007863439
134	0xbc117371	-0.008877621
135	0xbdf1c186	-0.1180449
136	0xbcfc7bee	-0.030820813
137	0x3e0c68ab	0.13711803
138	0x3dd6737e	0.10471247
139	0x3d3be0cb	0.045868676
140	0xbdec159c	-0.11527559
141	0xbe1ad05d	-0.15118547
142	0xbd749c2f	-0.05971926
143	0xbd74b993	-0.05974729
144	0x3e561c54	0.20909244
145	0xbda28ed7	-0.07937401
146	0xbcc454a1	-0.023966135
147	0xbc05cf43	-0.008167091
148	0xbd3dccc7	-0.04633787
149	0x3f27cc03	0.6554567
150	0xbdcc108a	-0.09964092
151	0x3ee77c95	0.45212236
152	0x3e282517	0.16420399
153	0xbdddf3f4	-0.10837546
154	0x3d8fa79d	0.070143916
155	0x3e54c834	0.20779496
156	0xbc712a08	-0.014719494
157	0xbd741018	-0.05958566
158	0x3da72889	0.08162028
159	0x3d2e96f0	0.042624414
160	0x3d5bc2e7	0.05365267
161	0xbe678316	-0.22608599
162	0xbb8742b7	-0.004127826
163	0xb9c07f8f	-0.00036716132
164	0x3e3e3e90	0.18578553
165	0x3dd97d98	0.10619658
166	0x3db3a49a	0.0877163
167	0x3dcd9768	0.10038644
168	0xbc0eed92	-0.008723633
169	0xbd1c2bb1	-0.038127605
170	0x3e0c5ba7	0.13706838
171	0xbcfa444a	-0.03055014
172	0x3d56549b	0.05232678
173	0xbe302267	-0.17200623
174	0x3d16f364	0.03685321
175	0xbc7db1fb	-0.015484328
176	0xbc167dbd	-0.009185252
177	0x3d6f9a69	0.058496866
178	0xbc79716e	-0.015224798
179	0x3d58eb2e	0.05295866
180	0x3caa664c	0.020800732
181	0xbd2a1521	-0.041524056
182	0x3d560063	0.052246463
183	0x3d6db994	0.05803831
184	0x3ceb4948	0.028721467
185	0x3da73b65	0.081656255
186	0x3e18a8a1	0.14908077
187	0x3d44bdb6	0.048032485
188	0xbe085580	-0.13313866
189	0xbc2c40f9	-0.010513538
190	0xb9b22b82	-0.00033983222
191	0x3db9cb7c	0.09072015
192	0x3ce5d528	0.028055742
193	0x3d327ccb	0.043576043
194	0x3dcdc17d	0.100466706
195	0x3dbce866	0.09224014
196	0x3c980d83	0.01856113
197	0xbce5dba2	-0.02805883
198	0x3e0fcec3	0.14043717
199	0x3cf3561c	0.029704146
200	0xbb878e89	-0.0041368646
201	0x3d1852fd	0.03718852
202	0x3c8b03da	0.01696961
203	0xbc8a9717	-0.016917748
204	0x3dc80ef2	0.097684756
205	0xbd9ff2a2	-0.078099504
206	0x3b1384b7	0.0022509524
207	0x3d9959fe	0.07487868
208	0x3d55297c	0.052041516
209	0x3cbd077d	0.02307486
210	0xbe577efa	-0.21044531
211	0xbd99a379	-0.07501883
212	0x3d1638b8	0.036675185
213	0x3d4c1122	0.049821027
214	0xbc23ac97	-0.009989879
215	0xbd6aa6d6	-0.057288013
216	0x3d29f844	0.04149653
217	0x3d07d0b5	0.033158023
218	0x3e34e044	0.17663676
219	0x3d634368	0.055484205
220	0x3adaed8b	0.0016702873
221	0xbd43de55	-0.047819454
222	0x3d185188	0.03718713
223	0x3ebc38ba	0.3676203
224	0xbcbe02cd	-0.023194695
225	0x3efd846d	0.49515095
226	0xbdea505f	-0.11441111
227	0x3d3edf46	0.04659965
228	0xbdd2e74f	-0.10298025
229	0x3f2d304e	0.6765183
230	0x3ce1ea15	0.02757744
231	0x3c7a9061	0.015293212
232	0x3c87b358	0.01656501
233	0x3d348466	0.044071577
234	0xbd88be79	-0.06676955
235	0xbdf57fe4	-0.11987284
236	0x3d7ba5e0	0.061437488
237	0x3e1ef87d	0.15524478
238	0x3e3d8c89	0.18510641
239	0x3dbc9d8c	0.09209737
240	0xbc2b9562	-0.010472627
241	0x3da39224	0.079868585
242	0x3dbe2007	0.092834525
243	0x3dde9d4f	0.10869848
244	0x3e4ac1fc	0.19800562
245	0xbdeb4dd1	-0.11489452
246	0x3d905be6	0.07048778
247	0xbd854829	-0.06507904
248	0x3d8e170c	0.069379896
249	0xbcaffbf8	-0.021482453
250	0x3cf7a58f	0.030230312
251	0x3d19844f	0.037479695
252	0x3de5d44e	0.112221345
253	0x3d96a9c7	0.07356601
254	0x3cda3f02	0.026641373
255	0xbe68c69d	-0.22732015

hidden_layer1.bias f4 [128]
0	0xbe93edc8	-0.2889235
1	0xbf6b732b	-0.9197261
2	0xbf45df59	-0.77293926
3	0xbf5d76fa	-0.8650967
4	0xbeeeebc7	-0.4666426
5	0xbf35c173	-0.70998305
6	0xbfa66899	-1.3000671
7	0xbe894ce1	-0.26816466
8	0xbfa0e22b	-1.2569021
9	0xbe617be4	-0.22019917
10	0xbf5dd821	-0.8665791
11	0xbfa5dce0	-1.2958031
12	0xbdc899d8	-0.09794968
13	0xbf93276b	-1.1496404
14	0xbef5525b	-0.47914395
15	0xbcdf58b5	-0.027263978
16	0xbf7fd707	-0.9993748
17	0xbee139b2	-0.4398933
18	0xbfa3c67f	-1.2794951
19	0xbede6a53	-0.43440494
20	0xbecbdf03	-0.39818582
21	0xbf43eacd	-0.7653015
22	0xbe253e59	-0.16137065
23	0xbfc160e0	-1.5107689
24	0xbefc9b1b	-0.49337086
25	0xbf222b81	-0.6334763
26	0xbf7b1dc1	-0.98092276
27	0xbf849e83	-1.0360874
28	0xbf64f7c0	-0.89440536
29	0xbf1b397b	-0.60634583
30	0xbf57d77e	-0.8431319
31	0xbe60ea9b	-0.21964495
32	0xbf20ee2e	-0.62863433
33	0xbf1c8563	-0.6114103
34	0xbf51a54b	-0.8189284
35	0xbf040300	-0.5156708
36	0xbfd1c260	-1.6387444
37	0xbec8605a	-0.3913601
38	0xbef6ab29	-0.4817746
39	0xbf7d9bed	-0.9906605
40	0xbf7c1ab3	-0.9847824
41	0x3e4b0e89	0.19829763
42	0xbf53ad73	-0.8268654
43	0xbc998bc9	-0.018743413
44	0xbf3d5970	-0.73964596
45	0xbcaefd9f	-0.02136117
46	0xbfd707bd	-1.6799237
47	0xbeedd48b	-0.4645122
48	0xbfcc4b3f	-1.5960463
49	0x3ebd4645	0.36967674
50	0xbf10c141	-0.5654488
51	0xbe893e98	-0.26805568
52	0xbf395093	-0.7238857
53	0xbf2c4680	-0.67295074
54	0xbe6fa667	-0.23403321
55	0xbfa222d6	-1.2666881
56	0xbf26c326	-0.6514152
57	0x3d5cb324	0.05388178
58	0xbeb4d8c6	-0.35321635
59	0x3cb18870	0.021671504
60	0xbd1e2021	-0.03860486
61	0xbcc97756	-0.024593037
62	0xbf3a98ac	-0.7288921
63	0xbf711925	-0.9417899
64	0xbf4d9d9b	-0.8031861
65	0xbf82180c	-1.0163589
66	0xbf330630	-0.69931316
67	0xbf85b127	-1.0444688
68	0xbc6436bf	-0.013929068
69	0x3cde2f73	0.027122235
70	0xbf0f734f	-0.5603532
71	0xbf952855	-1.1652933
72	0xbf0f7b3c	-0.56047416
73	0xbf881519	-1.0631438
74	0x3c9c0a62	0.01904792
75	0xbefb10ab	-0.49036154
76	0xbf138587	-0.5762562
77	0xbea7b6fe	-0.327568
78	0xbf5e4afb	-0.8683316
79	0xbf8a59e4	-1.0808682
80	0xbf7a0645	-0.97665817
81	0xbd5fc6b7	-0.05463287
82	0xbf6fee54	-0.93723035
83	0xbf0d307f	-0.55152124
84	0xbfb01611	-1.3756734
85	0xbf2d8e9c	-0.6779573
86	0xbf8f1f56	-1.1181438
87	0xbf8ba26d	-1.0908943
88	0xbfb89e1d	-1.4423252
89	0xbea5bc5f	-0.32370278
90	0xbed4c58b	-0.41556963
91	0xbf8d68d7	-1.104762
92	0x3dbd11a1	0.09231878
93	0xbca164cd	-0.019701386
94	0xbf7702d4	-0.9648869
95	0xbfa1a816	-1.2629421
96	0xbfa2ceb5	-1.2719332
97	0xbc852091	-0.01625088
98	0xbef3375f	-0.47503182
99	0xbe94310f	-0.2894368
100	0xbf238843	-0.63879794
101	0xbf835efd	-1.0263363
102	0xbf56a24f	-0.83841413
103	0xbe9e5b3b	-0.30928978
104	0xbf096907	-0.53675884
105	0xbe0c3059	-0.13690318
106	0xbf9fe98f	-1.2493151
107	0xbefc091c	-0.492257
108	0xbef2832e	-0.47365707
109	0xbf5e9528	-0.86946344
110	0x3e173c64	0.14769131
111	0xbe67e41f	-0.22645615
112	0x3df13330	0.11777341
113	0xbf2b2238	-0.6684909
114	0xbec16597	-0.3777282
115	0x3db9b589	0.09067828
116	0xbf563ddf	-0.8368816
117	0xbeff205c	-0.49829376
118	0xbfa1a38c	-1.2628036
119	0xbfa15373	-1.2603592
120	0xbf8e895f	-1.1135672
121	0xbf065602	-0.5247499
122	0xbeca1087	-0.39465734
123	0xbd8a7aaf	-0.06761681
124	0xbf9818a1	-1.1882516
125	0xbe402c16	-0.18766817
126	0xbe7e88e4	-0.24856907
127	0x3e212948	0.15738404

hidden_layer2.weight f4 [64, 128]
0	0xbf59b21d	-0.85037404
1	0xbad0bfb7	-0.0015926276
2	0x3dba2f57	0.090910606
3	0xbe14a623	-0.14516501
4	0xbc5b0ceb	-0.013369779
5	0x3eb02659	0.34404257
6	0x3c9d4157	0.019196196
7	0xba36c8d4	-0.0006972675
8	0xbe6b7af0	-0.22996116
9	0x3d1515bd	0.036397684
10	0x3e3cf432	0.18452528
11	0x3e8a6116	0.27027196
12	0xbde757ed	-0.112960674
13	0x3e64c36c	0.22340173
14	0x3d3aaae5	0.045573134
15	0xbe935ffa	-0.28784162
16	0x3df3fa1e	0.119129404
17	0xbe6171b7	-0.22016035
18	0x3cd8b763	0.026454633
19	0x3e809af8	0.25118232
20	0xbb629154	-0.0034571486
21	0xbd4e0eb3	-0.050306987
22	0xbcb2bdf1	-0.021819087
23	0x3d0e020c	0.03466992
24	0xbf3b4ed2	-0.73167145
25	0xbcd8c393	-0.026460445
26	0x3c154df7	0.009112827
27	0x3bd3a6b0	0.0064590797
28	0x3df69d81	0.1204176
29	0xbce248d4	-0.027622618
30	0xbd6595a0	-0.056050897
31	0xbf21c80d	-0.6319588
32	0x3e06a186	0.13147554
33	0x3daa31ba	0.08310266
34	0xbc0c1d55	-0.008551915
35	0xbf86b2f4	-1.0523362
36	0x3d6e93bd	0.058246363
37	0xbea3b719	-0.3197563
38	0x3c14085f	0.009035199
39	0x3c9bddf2	0.01902673
40	0x3e73fa56	0.23825964
41	0xbf8e7565	-1.1129576
42	0x3e44f3b1	0.19233586
43	0xbed97f6a	-0.42480022
44	0x3b4c0b0a	0.003113451
45	0xbfd5a931	-1.6692258
46	0xbd075567	-0.03304043
47	0xbd55e235	-0.05221768
48	0x3d7c6f96	0.061629854
49	0xbf8caa53	-1.0989479
50	0x3c1fab18	0.009745382
51	0xbe307fa3	-0.1723619
52	0x3c9f95db	0.019480636
53	0x3bc9406f	0.0061417143
54	0xba0f7a5b	-0.00054732495
55	0x3e4a6a7d	0.19767185
56	0xbf23b98d	-0.63955003
57	0xbfa7f10d	-1.3120438
58	0xbf76ee4d	-0.9645737
59	0x3c89bf3e	0.016814824
60	0x3c8a944b	0.016916415
61	0x3b25c0e1	0.0025291967
62	0xbee9e709	-0.45684078
63	0x3e394595	0.1809295
64	0xbbcf3883	-0.0063238754
65	0xbab96c2b	-0.0014146616
66	0xbdafbc2b	-0.08580812
67	0xbdc2393b	-0.09483572
68	0x3bbd79f0	0.0057823583
69	0xbfb14086	-1.3847816
70	0x3e4233aa	0.18965021
71	0x3dc71227	0.09720259
72	0xbf368c1c	-0.7130754
73	0x3b829ddf	0.003986105
74	0xbfa3df7e	-1.2802579
75	0x3c37ae9a	0.011211062
76	0xbe5696e4	-0.20955998
77	0xbed5719f	-0.4168825
78	0x3e27821a	0.16358224
79	0x3e69b992	0.22824696
80	0xbc9e077f	-0.019290684
81	0xbe27a935	-0.16373141
82	0x3e3b97fb	0.18319695
83	0x3c0e0507	0.008668191
84	0xbe0d896d	-0.13821955
85	0x3de2e7b5	0.11079351
86	0x3e4f4acc	0.20243376
87	0x3e7ed127	0.24884473
88	0xbe616c4e	-0.22013971
89	0xbf535e53	-0.825658
90	0xbfc48bd8	-1.5355177
91	0x3d9e02ba	0.07715364
92	0xbf8878f9	-1.0661918
93	0xbc9c3196	-0.019066613
94	0xbde777f2	-0.11302175
95	0x3d577db1	0.052610103
96	0x3b935e5b	0.004497332
97	0xbf98a02c	-1.192388
98	0x3c655d7e	0.013999341
99	0xbf2acea9	-0.6672159
100	0xbfa67944	-1.3005757
101	0xbd02b83b	-0.031913977
102	0x3cce6c65	0.02519817
103	0xbd658e1a	-0.05604372
104	0xbefb54ff	-0.49088284
105	0x3c2e30f1	0.010631786
106	0xbdf782c0	-0.120854855
107	0xbbb3d6d3	-0.0054882555
108	0xbe63b69e	-0.22237632
109	0x3c89130e	0.016732719
110	0xbfb039a9	-1.3767596
111	0xbf37dd53	-0.7182209
112	0xbabcc2c6	-0.0014401309
113	0x3d2ee681	0.042700294
114	0xbe867038	-0.2625749
115	0xbf6b54b0	-0.919261
116	0x3e27f56b	0.16402213
117	0xbdfe1e2d	-0.12408099
118	0x3dac0ea0	0.08401227
119	0x3c06bc5a	0.008223617
120	0x3d3323d7	0.04373535
121	0x3c436a14	0.011927146
122	0xbb43450a	-0.002979579
123	0xbbb084bb	-0.0053869165
124	0x3ce8e2fc	0.028428547
125	0xb8a63607	-7.92556e-05
126	0x3b951f04	0.0045508165
127	0xbfabe789	-1.3430034
128	0xbc000a5b	-0.007814969
129	0x3df11bd6	0.117728874
130	0x3db363ea	0.087592915
131	0x3d0263f2	0.031833597
132	0x3c9edd3b	0.0193926
133	0xbd7e0e0e	-0.062025122
134	0x3ea9ba7e	0.33150095
135	0xbd614562	-0.05499781
136	0x3e0660b5	0.13122828
137	0x3d5d0813	0.05396278
138	0x3dc7594d	0.0973383
139	0x3e594a25	0.2121969
140	0xbd88d4d7	-0.06681221
141	0x3c922990	0.017842084
142	0xbd05aa18	-0.032632917
143	0x3c85cfd3	0.01633445
144	0xbcff4cb9	-0.031164514
145	0x3dd906ba	0.10596986
146	0x3e627ce2	0.22117952
147	0xbd289425	-0.041156907
148	0x3d9ed7eb	0.07756027
149	0x3e2006a7	0.15627538
150	0x3d8057e2	0.06266762
151	0x3ee6b8f0	0.4506297
152	0x3d527c61	0.05138815
153	0xbee0cbf4	-0.43905604
154	0xbc7d145f	-0.015446751
155	0x3da160b5	0.078797735
156	0x3db8f587	0.090312056
157	0xbe935502	-0.28775793
158	0x3e574003	0.21020512
159	0x3d8aa630	0.06769979
160	0x3dff195a	0.12456007
161	0x3e1a661d	0.15078016
162	0x3dd8577f	0.105635636
163	0xbd880f2a	-0.06643517
164	0x3f12246a	0.57086813
165	0xbd8872e3	-0.06662538
166	0x3dc2bd13	0.09508719
167	0x3c774348	0.015091725
168	0x3dbed882	0.09318639
169	0xbda4a11e	-0.08038543
170	0xbd2970cb	-0.041367333
171	0xbba46f55	-0.0050181546
172	0x3cd0dd19	0.025496053
173	0x3af5920c	0.0018735542
174	0x3f0356b4	0.51304173
175	0x3bff6385	0.007793846
176	0xbf218aff	-0.63102716
177	0x3c76df9d	0.015067962
178	0xbdf6437b	-0.1202459
179	0xbbf027dc	-0.0073289704
180	0x3df18a4a	0.11793955
181	0x3b793474	0.003802565
182	0x3d799d4a	0.06094102
183	0x3e6db3d6	0.23213133
184	0x3cf98cc7	0.030462636
185	0xbdb1bfbf	-0.08679151
186	0x3dbe5cc1	0.09295035
187	0x3d6daee6	0.058028124
188	0x3c6f688b	0.014612327
189	0x3d278632	0.040899463
190	0x3d339e0d	0.0438519
191	0x3d511dcb	0.051053803
192	0x3df2dd57	0.118586235
193	0x3e0acb1e	0.13554046
194	0xbdebd3ef	-0.115150325
195	0x3c24d4d7	0.010060511
196	0xbc8617bb	-0.016368737
197	0x3c1abdc7	0.0094446605
198	0xbce12ae2	-0.027486268
199	0x3e2c2899	0.16812362
200	0x3d307a62	0.043085463
201	0xbf19eaf2	-0.60124123
202	0x3d90cc0f	0.07070171
203	0x3cd29f2f	0.02571067
204	0x3ca84146	0.020538937
205	0xbc628bf4	-0.013827313
206	0xbbe89d7d	-0.007098852
207	0x3e2e44e6	0.1701847
208	0x3e2b59e7	0.16733514
209	0x3e188ec7	0.14898215
210	0x3db800a1	0.08984495
211	0x3e231eff	0.15929793
212	0x3e161578	0.14656627
213	0xbdc41cf7	-0.09575837
214	0x3e8c5385	0.2740747
215	0x3e096c93	0.13420324
216	0x3ec4ae00	0.38414
217	0x3cb3aa0b	0.021931669
218	0x3ccbb212	0.024865184
219	0x3e161c21	0.14659168
220	0x3cea708b	0.028618118
221	0xbd4c9c81	-0.04995394
222	0xbd790dc9	-0.060804162
223	0x3e61d173	0.22052555
224	0x3e32b670	0.17452407
225	0xbca4c8f9	-0.020115362
226	0x3d006a26	0.03135123
227	0x3d691af8	0.056910485
228	0x3d9d3568	0.07676202
229	0x3cf091ba	0.029366363
230	0x3e35636b	0.17713706
231	0x3ccfcc46	0.02536596
232	0x3dcb03d0	0.099128366
233	0x3d646673	0.055761766
234	0x3df76185	0.12079147
235	0x3d7ba571	0.061437074
236	0x3d775286	0.060381435
237	0x3d631d18	0.055447668
238	0x3d06fe17	0.032957163
239	0x3ddf5a6b	0.10905918
240	0xbc73dca9	-0.014884152
241	0xbd768e33	-0.060194205
242	0x3cb86444	0.022508748
243	0x3c014b0b	0.007891427
244	0x3d08bf8c	0.0333858
245	0x3dc08af1	0.09401501
246	0xbd05d759	-0.032676075
247	0xbf47a898	-0.7799163
248	0x3e4a5781	0.19759943
249	0x3cfa8862	0.03058261
250	0x3d20583e	0.039146654
251	0x3c534663	0.0128951995
252	0x3d9ab8ff	0.075548165
253	0x3d2805ac	0.041021034
254	0x3dc8b8f5	0.09800903
255	0xbceb0da7	-0.028693033

hidden_layer2.bias f4 [64]
0	0x3f92ec38	1.1478338
1	0xbf304275	-0.68851405
2	0xbe2fba70	-0.17160964
3	0xbf1f4867	-0.6221985
4	0xbec95456	-0.39322156
5	0xbd195492	-0.03743417
6	0xbed6be59	-0.419421
7	0xbed6782b	-0.41888556
8	0xbebda9a5	-0.3704349
9	0xbcd392a7	-0.025826765
10	0xbd2d1196	-0.0422531
11	0xbeea62c9	-0.45778492
12	0xbf3ff0fa	-0.74977076
13	0xbece0ec2	-0.40245634
14	0xbef8e833	-0.48614654
15	0xbc47bca5	-0.012190972
16	0xbf020645	-0.50790817
17	0xbc0d72c1	-0.0086333165
18	0xbf37b26f	-0.71756643
19	0xbee06309	-0.43825558
20	0xbf4dc07a	-0.8037182
21	0xbe96709c	-0.2938279
22	0x3fad6581	1.3546602
23	0xbf23dfc0	-0.6401329
24	0xbe67bf55	-0.22631581
25	0x3fb4783f	1.4099196
26	0xbf02045c	-0.507879
27	0x3f560a82	0.83609784
28	0x3f071ede	0.52781475
29	0xbe51eef5	-0.20501311
30	0xbf2ec902	-0.68275464
31	0xbf08d51f	-0.53450197
32	0xbe27ea35	-0.16397937
33	0xbef7e67b	-0.4841803
34	0xbf4d3514	-0.80159116
35	0x3bf57bd2	0.007491567
36	0xbee002c0	-0.43752098
37	0xbe737d99	-0.2377838
38	0x3f4af464	0.7927916
39	0xbf8442b1	-1.0332853
40	0xbedd5b01	-0.43233493
41	0x3cd9bd30	0.02657947
42	0xbf0b74e9	-0.54475266
43	0xbf3f09ed	-0.7462452
44	0xbec3e4dc	-0.38260543
45	0x3f113a99	0.5673004
46	0xbe8c390d	-0.27387276
47	0xbde80f6a	-0.11331065
48	0xbc998a46	-0.018742692
49	0xbcf47c7f	-0.02984452
50	0xbe6d6392	-0.23182514
51	0xbcff47a4	-0.03116209
52	0xbe3bd3e5	-0.1834255
53	0xbea76f72	-0.32702214
54	0xbdcba67d	-0.099438645
55	0xbf373847	-0.7157025
56	0xbec6ab42	-0.38802534
57	0xbeb2dceb	-0.34934172
58	0x3e18ee95	0.14934762
59	0xbf018338	-0.5059085
60	0xbeff4a11	-0.49861196
61	0xbe3dd177	-0.18536936
62	0xbf02abc7	-0.5104336
63	0xbf5a49ab	-0.8526866

hidden_layer3.weight f4 [32, 64]
0	0x3f19f522	0.6013967
1	0xbcdb3076	-0.026756506
2	0x3d7a46a5	0.061102528
3	0xbbc4a8f2	-0.006001585
4	0xbe7213d9	-0.23640384
5	0x3d31a845	0.043373365
6	0xbcb34a20	-0.021885931
7	0x3d25041e	0.04028713
8	0xbbce4065	-0.0062942975
9	0xbe359bfd	-0.17735286
10	0xbe847584	-0.25870907
11	0x3d0b9cc3	0.034085046
12	0x3c4a826a	0.012360195
13	0xbe44735e	-0.19184634
14	0xbc98b05b	-0.01863878
15	0xbea06caa	-0.31332904
16	0xbd63bd52	-0.05560047
17	0xbea1b1d6	-0.3158099
18	0x3d078735	0.033087928
19	0xbc92dfda	-0.017929006
20	0xbcbe2867	-0.023212625
21	0xbe9ad128	-0.302377
22	0x3df78ee8	0.12087804
23	0x3d65a194	0.056062296
24	0x3bf7a03f	0.0075569446
25	0x3e5498ce	0.20761415
26	0xbbda0bab	-0.006654223
27	0x3d57362b	0.052541893
28	0x3d8942bb	0.06702181
29	0x3dbd920c	0.09256372
30	0xbd1d6be9	-0.03843299
31	0x3e8dfc35	0.2773148
32	0xbe3c80d1	-0.18408515
33	0x3c969604	0.01838208
34	0x3d7b9f88	0.061431438
35	0xbe4a3fff	-0.19750975
36	0x3d859dff	0.06524276
37	0xbbb32b5b	-0.005467815
38	0x3f31b5ee	0.6941823
39	0x3d356350	0.044284165
40	0xbcfac29f	-0.03061038
41	0x3c435f09	0.011924514
42	0xbd18e645	-0.037328977
43	0x3a78953a	0.0009482686
44	0x3d4dd334	0.050250247
45	0x3eddb3f7	0.43301365
46	0x3c205bee	0.009787543
47	0x3cf0e23b	0.02940475
48	0xbe227e83	-0.15868573
49	0xbe1c2944	-0.15250117
50	0xbdc1cda0	-0.09463048
51	0xbe1a32a1	-0.15058376
52	0x393f1f06	0.00018226737
53	0xbda83123	-0.08212497
54	0x3c9d15dd	0.019175464
55	0xbca9d616	-0.020731967
56	0xbe317186	-0.17328462
57	0x3d11bb14	0.035578802
58	0x3da0b038	0.07846111
59	0x3bd1aa0b	0.0063984445
60	0x3c5ffd9f	0.013671308
61	0x3c663afc	0.014052149
62	0xbea25aea	-0.31709987
63	0x3da35b17	0.079763584
64	0xbfaad0ce	-1.3344972
65	0x3d198843	0.037483465
66	0x3ca8c72d	0.020602787
67	0x3da43a2b	0.08018907
68	0x3dd06acd	0.10176621
69	0x3d7b735a	0.061389305
70	0x3e015e68	0.1263367
71	0x3dc44941	0.095842846
72	0x3de0df84	0.10980132
73	0x3da18f3c	0.07888648
74	0x3dbd9aba	0.092580274
75	0x3dd7959f	0.10526585
76	0xbeea7d1f	-0.45798585
77	0x3d92fb08	0.07176787
78	0x3cde176c	0.027110778
79	0x3dac897e	0.08424662
80	0x3e0c85c9	0.1372291
81	0x3d26039b	0.040530782
82	0x3d4a7113	0.049424242
83	0x3e245366	0.16047439
84	0x3dedec40	0.11617327
85	0x3cc9e265	0.024644086
86	0xbf13e618	-0.5777297
87	0x3daa7366	0.08322792
88	0x3e50f1a0	0.20404673
89	0xbf056b06	-0.5211643
90	0x3d8f536f	0.069983356
91	0xbea6f665	-0.3260986
92	0xbe6c4139	-0.23071755
93	0x3de63761	0.112410314
94	0x3e16de06	0.14733133
95	0xbf1eca50	-0.62027454
96	0x3de62c91	0.11238969
97	0x3e19e735	0.15029605
98	0x3dbd6845	0.092484035
99	0x3d157d1b	0.036496263
100	0x3df7eb72	0.121054545
101	0x3da5ff9e	0.08105396
102	0xbfc5d53e	-1.5455701
103	0xbea8b8d6	-0.3295352
104	0x3e547896	0.20749125
105	0xbe71ec3a	-0.2362527
106	0x3dd22d9c	0.102626055
107	0x3d8d91f6	0.069126055
108	0x3daa6ba8	0.08321315
109	0x3d9b6553	0.075876854
110	0x3d91ab1c	0.07112715
111	0x3d15902d	0.03651445
112	0x3da775eb	0.08176788
113	0xbb23f75a	-0.002501926
114	0xbe8ab913	-0.27094325
115	0x3d1e2162	0.038606055
116	0x3df908b2	0.121598616
117	0x3dcb7673	0.09934702
118	0x3d44f366	0.048083685
119	0x3d79900c	0.06092839
120	0x3d18e39a	0.037326433
121	0x3da396fc	0.07987782
122	0xbe0b929d	-0.13630147
123	0x3d44c650	0.048040688
124	0x3dbf3f99	0.09338302
125	0x3dbb1a02	0.0913582
126	0x3e1f315a	0.1554617
127	0x3da02ba0	0.07820821
128	0xbca0d016	-0.019630473
129	0xbdb0350c	-0.08603868
130	0x3d98f37d	0.07468317
131	0xbdb1a8ad	-0.086747505
132	0xbdd43227	-0.10361128
133	0x3d031491	0.032002036
134	0xbe1da991	-0.15396716
135	0xbda4d827	-0.0804904
136	0x3cf7d77e	0.030254122
137	0xbd96fc03	-0.07372286
138	0xbe01ab2c	-0.12662953
139	0xbd39d5ae	-0.045369796
140	0xbdf64d40	-0.12026453
141	0xbd7ea504	-0.06216909
142	0xbe12d60e	-0.14339468
143	0xbdfdc4f9	-0.12391085
144	0xbe146db3	-0.14494972
145	0x3be35c38	0.0069384836
146	0xbd2f68d1	-0.04282457
147	0xbd8eeac8	-0.06978375
148	0xbc7cb174	-0.0154231675
149	0xbe2c24d8	-0.1681093
150	0xbc1812f9	-0.009281867
151	0xbda2922a	-0.07938035
152	0xbe08cbc0	-0.13358974
153	0xbd972832	-0.073807135
154	0xbda1d458	-0.079018295
155	0xbc92cbaa	-0.01791938
156	0xbcc64917	-0.024204774
157	0xbd1ad0e6	-0.037796877
158	0xbd41831d	-0.04724418
159	0x3dd23a96	0.10265081
160	0xbd4b5460	-0.049641013
161	0xbcbb310b	-0.022850534
162	0xbe193e7a	-0.14965239
163	0xbdcfe34a	-0.10150774
164	0xbd65bf48	-0.056090623
165	0xbdb4750a	-0.08811386
166	0x3cd1ee9a	0.02562647
167	0xbd76b741	-0.06023336
168	0xbd7b8f83	-0.06141616
169	0xbd5a0254	-0.053224877
170	0xbd6ca738	-0.05777666
171	0xbb1a7be1	-0.0023572373
172	0xbd93e0d1	-0.07220615
173	0x3d1c9c3e	0.03823494
174	0xbd07fc16	-0.033199392
175	0xbdcdeca1	-0.10054899
176	0xbd28c534	-0.041203693
177	0xbc1a09ec	-0.00940178
178	0xbdb50be2	-0.08840157
179	0x3c530984	0.012880687
180	0xbbbc074d	-0.005738175
181	0xbdb7de0f	-0.08977901
182	0xbd9d2a8e	-0.07674132
183	0xbdf663de	-0.12030767
184	0x3d2a7f13	0.041625094
185	0x3cc2a3ea	0.023759801
186	0xbe0110c6	-0.12604055
187	0xbe1c92c4	-0.15290362
188	0x3ca3c64b	0.019992014
189	0xbe16148a	-0.14656273
190	0xbdec394b	-0.11534365
191	0xb967633c	-0.00022066844
192	0xbf8f5eee	-1.1200845
193	0x3dc3878e	0.095473394
194	0x3d8a7d65	0.06762198
195	0x3d96adf4	0.07357398
196	0xbc13658d	-0.00899638
197	0x3d48342a	0.048877873
198	0x3e1bc488	0.1521169
199	0x3db81be7	0.08989697
200	0x3ce4bd16	0.027922194
201	0xbd0df133	-0.034653854
202	0xbbd3d483	-0.0064645424
203	0x3d9def67	0.07711678
204	0xbf8cfaea	-1.1014073
205	0x3d2893a1	0.041156415
206	0x3de484d0	0.111581445
207	0x3d36424b	0.044496816
208	0x3dc21899	0.09477348
209	0x3b390b4d	0.0028235496
210	0x3dbcaf32	0.09213103
211	0x3e14a58e	0.14516279
212	0x3d89fa9f	0.06737255
213	0x3deb1525	0.114786424
214	0xbec831a1	-0.39100364
215	0x3d46182a	0.04836289
216	0x3df261ab	0.11835035
217	0xbf41532a	-0.75517523
218	0x3d7d96b2	0.061911292
219	0xbf1f3468	-0.6218934
220	0xbeec07fb	-0.4609984
221	0x3c174181	0.009231926
222	0x3d37acca	0.04484252
223	0xbfb68e80	-1.4262238
224	0x3cae24e5	0.021257827
225	0x3d4d5e71	0.050138894
226	0x3d688aff	0.056773182
227	0x3a865496	0.0010248597
228	0x3d891936	0.06694262
229	0x3daed84a	0.085373476
230	0xbfb58d1b	-1.4183687
231	0xbf506f0a	-0.8141943
232	0x3de18a54	0.11012712
233	0xbf0bf4a2	-0.54670155
234	0x3d84321d	0.06454871
235	0x3d9f498c	0.077777
236	0x3d13b5c6	0.036062025
237	0x3d0e0353	0.03467114
238	0x3d33fd1e	0.043942563
239	0x3d5c3e4c	0.05377035
240	0xbbbba4b0	-0.0057264194
241	0x3c2d83f0	0.010590538
242	0xbf306968	-0.6891084
243	0xbbc2c4a9	-0.005943854
244	0x3dae14d5	0.08500067
245	0xbae12ef7	-0.0017180134
246	0x3d0dbc99	0.03460369
247	0x3d64532c	0.05574338
248	0x3d611b12	0.054957457
249	0x3d9b51b6	0.075839445
250	0xbe7a8385	-0.24464233
251	0x3d11c2b7	0.035586085
252	0x3da05a0f	0.07829677
253	0x3dad649a	0.08466454
254	0x3d526bff	0.051372524
255	0x3c9b2bcb	0.01894178

hidden_layer3.bias f4 [32]
0	0x3f820304	1.015717
1	0x3ff32d25	1.8998152
2	0xbe59d4bf	-0.21272562
3	0x3fccfeec	1.6015296
4	0x3f4b1c7c	0.7934034
5	0x3f5e399c	0.86806655
6	0x3fdbc121	1.7168313
7	0x3f625365	0.884085
8	0x3fd5e0a6	1.6709182
9	0x3f7925ef	0.9732351
10	0x3f956501	1.1671449
11	0x3f92ae4a	1.1459439
12	0x3fdec664	1.7404294
13	0x3fbd7c84	1.4803624
14	0x3f09505d	0.5363825
15	0x3f928b32	1.1448729
16	0x3fda08bc	1.7033916
17	0x3f93866c	1.1525397
18	0x3e89c417	0.26907417
19	0x3f5b8dd6	0.857633
20	0x3f182259	0.5942741
21	0x3fb47284	1.4097447
22	0x3ff86f36	1.9408939
23	0x3fd326f7	1.6496266
24	0x3fc2f1b5	1.5230013
25	0x3f8f3c6a	1.1190312
26	0x3f7e42f8	0.99320936
27	0x3f4b69ac	0.7945812
28	0x3fddd028	1.7329149
29	0x3fe207c6	1.7658622
30	0x3f8c9749	1.0983669
31	0x3facda98	1.350421

output_layer.weight f4 [1, 32]
0	0xbec85e93	-0.39134654
1	0x3d811d82	0.06304456
2	0xbd13e8e1	-0.036110763
3	0x3e011138	0.12604225
4	0xbf79a6b6	-0.97520006
5	0xbfa60be4	-1.2972379
6	0x3d9cd68c	0.07658109
7	0x3e8c1f94	0.27367842
8	0x3d8a382a	0.06748994
9	0xbf169e4a	-0.5883528
10	0x3e602b2c	0.21891469
11	0xbf19498b	-0.5987784
12	0x3d882526	0.066477105
13	0xbeda2641	-0.4260731
14	0xbf978632	-1.1837828
15	0xbeeedc50	-0.4665246
16	0x3d874d64	0.06606558
17	0xbee6ee73	-0.45103797
18	0x3da5ffee	0.08105455
19	0xbf95b0b9	-1.1694556
20	0x3ecb48a9	0.39703873
21	0xbf0b0f7c	-0.543205
22	0x3d80bcc3	0.062860034
23	0x3d903d79	0.07042975
24	0x3d939649	0.07206399
25	0xbee090b3	-0.43860397
26	0xbed49897	-0.41522667
27	0xbfd0820d	-1.6289688
28	0x3d8678af	0.06565987
29	0x3d8303b3	0.0639719
30	0xbeeb229c	-0.45924842
31	0x3e18ca09	0.1492082
