regression_model.pth (torch, 229963 bytes, 7 tensors)

hidden_layer1.weight f4 [256, 75]
000000 e6 04 3e 3b c8 00 36 bc 38 52 bc ba 95 44 82 3c
       0.002899462 -0.011108585 -0.0014367765 0.015901843
000010 66 6d 77 bb 5f b4 a7 3e 21 43 0f 3c e0 79 17 bc
       -0.0037754416 0.327548 0.008744032 -0.009245366
000020 81 c6 00 3c 2b 54 91 ba c4 bc 20 3d 46 ee 19 bc
       0.007859827 -0.0011087706 0.03924252 -0.009395188
000030 b3 b0 7b be 30 74 61 3d fd 34 90 be 8f 4f 37 bc
       -0.24579124 0.055042446 -0.28165427 -0.011188402
000040 d5 de 0c 3c 38 72 6e be e9 4f 50 bd be 4e 88 3d
       0.008598049 -0.23285758 -0.05085746 0.06655644
000050 46 23 9d 3d 2d d1 3d ba 96 a8 eb 3d d6 0d 7d 3b
       0.076727435 -0.00072409475 0.115067646 0.0038612983
000060 d5 43 96 3d 3f 40 82 bd 5b 48 8e bd 46 9a a1 bd
       0.07337157 -0.0635991 -0.069473945 -0.078907534
000070 44 31 ed 3b b0 57 7e 3d d9 c2 71 bc 4c ec a5 3d
       0.007238539 0.062095344 -0.014755928 0.08101711
000080 8c fc 9b 3d dd d1 af be 73 5e 63 3d 98 ab aa 3d
       0.07616529 -0.343398 0.055509996 0.0833351
000090 e3 d1 12 be 91 24 d2 3d 90 62 88 3d dc 80 be be
       -0.14337878 0.10260881 0.06659424 -0.37207687
0000a0 c6 59 7b 3d d2 74 77 be 10 91 13 3d a0 72 f9 3d
       0.06136491 -0.24165657 0.036027014 0.12180066
0000b0 76 36 66 be b4 62 a3 bd b5 70 1b 3e c6 0c e0 3d
       -0.22481713 -0.079778105 0.15179713 0.10939936
0000c0 10 1a f3 3d 98 2a 31 bd 76 d7 55 be 6c 51 dd bc
       0.118702054 -0.04325351 -0.20882973 -0.027016364
0000d0 e1 41 91 3d cc 33 6e bd 8d 7f 08 3d 7f a3 95 3d
       0.070926435 -0.058154866 0.033324767 0.07306575
0000e0 23 b3 22 bd 9f d4 36 bd a3 10 81 bc 20 91 39 39
       -0.03972162 -0.044636365 -0.015755003 0.00017697038
0000f0 3e 2a c6 bd 73 93 f4 3d 90 4f 46 3c aa 2d 8c 3d
       -0.09676026 0.11942186 0.01210393 0.06844647
000100 c6 fd ab ba e8 df a4 be f6 f0 38 3d 16 93 5e bd
       -0.0013121895 -0.32202077 0.045151673 -0.05433949
000110 10 9a ec bd d5 1d 9e bd 48 3a 2c 3d 1c 1e 97 3c
       -0.115528226 -0.07720534 0.04204777 0.018446974
000120 16 8b f5 3c 55 fb f6 3c eb 5a 08 3d 7a 36 9e bc
       0.029973548 0.030149141 0.03328983 -0.019313086
000130 f8 bd 93 bd ac c2 eb bc ef b9 92 bc 46 9e 42 3d
       -0.07213968 -0.02877935 -0.017910926 0.047514223
000140 d2 7f 5f 3e e8 75 f0 bb 9c 9b f1 3c b5 e7 2e 3d
       0.21826103 -0.0073382743 0.029493146 0.04270144
000150 2c 9b b6 3c 88 58 fd 3d fb 49 02 be 05 34 74 3d
       0.022290789 0.123704016 -0.12723534 0.059619922
000160 fe 70 86 3d f5 7c 68 be 71 ad f6 3d d8 c8 b6 3d
       0.0656452 -0.22703917 0.120448 0.08925027
000170 52 97 08 3e df ab 8f 3d 71 92 27 3d 64 09 82 3b
       0.13338974 0.07015204 0.04091114 0.0039684046
000180 36 4c 64 be 3c b2 ed 3d f7 1e 14 3d 56 ad 05 bd
       -0.22294697 0.11606261 0.036162343 -0.03263601
000190 2b 65 3b be 05 f3 01 be 61 d8 14 be 8d f9 f8 bd
       -0.18300311 -0.12690361 -0.14535667 -0.12156973
0001a0 7f 55 c3 3d d2 d3 0e 3e f2 b9 8a be 5f ef f7 3d
       0.095377915 0.1394799 -0.2709499 0.12106203
0001b0 bb f6 11 3e ed ac fa 3d 88 1e 02 3e de b5 13 3e
       0.14254276 0.12240014 0.12706959 0.14424846
0001c0 df 59 f4 3d f2 85 4f be 1e e2 99 be 3b 62 6a bd
       0.11931204 -0.2026594 -0.30055326 -0.057222586
0001d0 cf 4d 11 bd 91 a6 bd bd cf eb 14 bb c2 00 9b 3d
       -0.035474595 -0.09260286 -0.002272356 0.07568504
0001e0 27 f9 f6 3d 04 2a 6c 3d c4 88 1c 3d e3 ac 35 be
       0.12059241 0.057657257 0.038216367 -0.17741732
0001f0 f6 67 7f 3d 0a c3 61 3c db 5b 2d be 92 1a 09 3d
       0.062355004 0.013779411 -0.16929571 0.033472605
000200 5c f4 76 3d 89 f9 4a 3d be 5f af bd 62 d0 60 3c
       0.060291633 0.04955438 -0.08563183 0.013721557
000210 87 a9 11 3e 16 d5 64 3d 4f 45 e9 bd 4b 44 8f bd
       0.14224826 0.055867277 -0.11390173 -0.06995448
000220 76 59 0f be 98 cd 75 bd 5a 17 cd 3c db 65 ac bc
       -0.1399897 -0.060010523 0.025035549 -0.021044662
000230 9b 86 ea bd 4d c4 a7 bd c6 5d 22 3d e5 d8 c4 3c
       -0.11451455 -0.08191738 0.03964021 0.024029205
000240 a8 9c ea 3d 72 a6 61 3d f1 ca fd 3d 9e 6a 8d bc
       0.11455661 0.055090375 0.123922236 -0.017262753
000250 55 0c 1c 3d a7 86 e8 bb 42 2e 18 bb 72 fa ab 3c
       0.0380977 -0.00709613 -0.0023220931 0.020993445
000260 21 e5 87 bb c8 85 37 3c 33 0a 3e bb a4 fe d6 3e
       -0.0041471873 0.0112013295 -0.0028997778 0.4199115
000270 d7 e4 87 bb d9 50 5b 3b 96 c9 7e bc c1 48 8b 3a
       -0.004147153 0.0033464937 -0.0155509915 0.0010626541
000280 39 29 c5 3b ed d3 95 bd 45 26 60 bb 28 62 1c be
       0.006016877 -0.07315812 -0.0034202498 -0.15271819
000290 d2 c6 b7 3d a6 b2 94 be a1 48 41 3d 6f 7f 50 3d
       0.08973469 -0.29042548 0.047188405 0.05090278
0002a0 3c bc 8b 3d df 7e b0 3c 91 07 7c 3b 98 0d f1 3c
       0.06823012 0.021544872 0.0038456658 0.029425427
0002b0 b0 e3 9a 3d e9 d2 c6 3d c3 1a 83 be a9 f6 ce 3c
       0.07562959 0.09708197 -0.25606355 0.025264101
0002c0 5e ab a4 3c 18 ea 3a 3d 1a 5b 05 3d a4 5c b2 3c
       0.020101245 0.045633405 0.032557584 0.02177269
0002d0 bb 60 14 3e 10 51 09 3c 3f 4b e1 3d 07 1a 8f be
       0.14490025 0.008381143 0.1100068 -0.27949545
0002e0 a2 ae 4a 3d fa 86 33 3d 20 79 db 3c e8 a6 b3 3d
       0.04948295 0.043829896 0.026791155 0.08772069
0002f0 00 13 bb 3c 06 42 06 3e 3b 48 b8 3d 3d f4 42 bd
       0.022836208 0.13111123 0.08998152 -0.047596205
000300 63 2d c7 bd c8 7f 6a be d4 74 91 bd 60 97 88 3c
       -0.09725454 -0.22900307 -0.07102361 0.016673744
000310 56 23 45 3d 28 01 00 3e 91 bd ff 3d 2c fc 74 be
       0.048129402 0.12500441 0.12487329 -0.23924321
000320 ae 2e 57 be dd 8c 69 3d b7 c1 a8 3d 1e 89 8a 3b
       -0.210139 0.057019103 0.08240073 0.0042277714
000330 41 4a 76 bd ed 5f bd 3d 84 a9 44 be 81 df 5a ba
       -0.060129408 0.09246812 -0.1920529 -0.0008349345
000340 cf 08 96 bd 57 12 2d bd 85 ae 3e bd e1 1f 78 3c
       -0.07325899 -0.04225382 -0.046553154 0.015144319
000350 73 53 c5 bd a1 ea 0a 3c a4 c8 d6 3d 88 01 0e be
       -0.09635057 0.008478791 0.10487488 -0.13867772
000360 18 5d 5d 3d 4e 2b 4a 3d 5e bc c4 bd df 22 e4 3d
       0.05404386 0.049357705 -0.09606241 0.11139464
000370 d2 63 c0 bc 54 8f 1c 3d 6d f7 e3 bc 06 f2 ba bc
       -0.023485098 0.038222626 -0.027827943 -0.022820484
000380 f4 2e e1 bc 72 1e c4 bc 1b b1 e7 bb 59 e6 29 3d
       -0.02748821 -0.023940299 -0.007070673 0.041479442
000390 76 36 cc 3b d7 94 78 bc 13 82 29 3e 24 cb 59 bd
       0.006232078 -0.015172205 0.16553526 -0.053172246
0003a0 fd ac 50 bc 30 ab ad 3c 5e 66 d3 ba 5d 1f 08 be
       -0.012736556 0.021199793 -0.001612853 -0.13293214
0003b0 2a 08 13 bd c9 5c 77 bd 96 93 2c bd f1 37 8b 3b
       -0.035896458 -0.06039122 -0.042132936 0.004248612
0003c0 ba ae 43 3d e6 07 0f 3d fb dc 0f be 7e ab f7 3d
       0.047774054 0.034919642 -0.14049141 0.120932564
0003d0 2e 07 bb 3d db 82 ac 3d 5a f0 93 3d cd 1f 78 3d
       0.09132229 0.08423396 0.07223578 0.060577203
0003e0 33 26 fc 3b d6 8b 9f 3d 15 d1 ca 3d 2c 6c ef 3c
       0.0076949834 0.077903435 0.099031605 0.029226385
0003f0 5b 15 5f be 3f c6 04 3e f3 ab 81 3d 19 27 c7 3d
       -0.2178549 0.1296625 0.06331625 0.09724254

hidden_layer1.bias f4 [256]
000000 21 1c 31 3e e4 fd 21 bd a7 8a 29 3e 4b 12 50 3d
       0.17295887 -0.03954877 0.16556798 0.050798696
000010 9f ea 00 bf bd fb 23 bd da e5 1f 3e 6b 0e 37 be
       -0.50358003 -0.040035 0.15615025 -0.17876594
000020 f6 79 96 3d dd 91 8e bd bb 40 19 3d 3b f7 f4 bd
       0.07347481 -0.06961415 0.037415247 -0.11961218
000030 7e 08 2a bd 85 de 9f be c6 a2 c7 bc 76 02 d2 be
       -0.041512005 -0.31224456 -0.024369609 -0.41017503
000040 e0 f0 f4 be 62 bf 36 be ec 8f 23 3d b9 87 b5 be
       -0.47840023 -0.17846444 0.039932176 -0.3545511
000050 18 25 36 bd 8a 8c e8 3c 2d ee 14 3e 61 29 15 bd
       -0.04446897 0.028387327 0.14543982 -0.036416415
000060 ee d0 84 3e a6 ab 6b 3c c3 1e 03 3e df 00 26 3e
       0.2594065 0.014384186 0.12804703 0.1621127
000070 95 8f f0 be d0 18 55 bc bf 66 33 3e dd ca 32 be
       -0.46984544 -0.013006404 0.17519663 -0.17460199
000080 28 ba a4 bc 83 ed 43 be 3f 91 6e bc 62 48 27 3e
       -0.020108297 -0.19133572 -0.014560997 0.16336206
000090 d8 f9 a1 be 76 5b d8 be 3c 57 2d 3e a2 91 ce be
       -0.31635928 -0.4225728 0.16927809 -0.40345484
0000a0 d0 c0 55 bb c7 c7 b8 3c 89 37 a7 bd 83 81 d1 be
       -0.0032616146 0.022556199 -0.08164889 -0.40919122
0000b0 70 c0 5b 3e 81 0f 08 3d e1 a8 49 bd b6 e3 35 bd
       0.21460128 0.03321791 -0.04923332 -0.044406615
0000c0 02 4b 50 bd 35 32 d6 3d 49 a4 92 be 14 4d c2 bc
       -0.050852783 0.10458795 -0.28640965 -0.023718394
0000d0 00 c0 01 3d 9f b9 c2 3d 6f e4 dd 3d 0c 42 cd be
       0.031677246 0.09508061 0.10834586 -0.40089452
0000e0 32 3a 4e bd f5 af 5b 3e cf 21 b9 3d 3e 7e 28 be
       -0.050348468 0.21453841 0.090396516 -0.16454408
0000f0 ef 0e 11 3d 06 37 3f bd 9f a5 26 3e af 2e 5a be
       0.035414632 -0.046683334 0.16274117 -0.21306871
000100 8f de 8b 3d f4 02 cd 3d a1 21 68 be 73 12 16 3c
       0.06829559 0.10010329 -0.22669078 0.009159672
000110 19 00 e7 3b d9 18 b2 be bf ac 02 bd 58 9d 3e 3b
       0.007049572 -0.34784582 -0.031903025 0.0029085483
000120 78 82 bc be ea b9 89 bd 09 f2 ae be 2c 4c 35 3e
       -0.3681829 -0.067249134 -0.34169033 0.17704839
000130 f5 b3 f8 be 54 cf 19 3e 7d 88 8b 3d 43 31 05 bf
       -0.48574796 0.15020496 0.068131424 -0.5202829
000140 c1 84 3a 3e 04 30 f5 3d 60 88 b9 3d ac b7 d2 bd
       0.18214704 0.11972049 0.090592146 -0.10288939
000150 57 37 3d 3e fe eb bc 3d 38 99 58 3e 47 41 99 3d
       0.18478142 0.092246994 0.21152198 0.07483154
000160 9f 94 89 3d ef 12 3b bd 44 95 d5 be 56 66 b9 bd
       0.067178 -0.045672353 -0.41715443 -0.09052722
000170 08 4f 2a 3b d3 d0 e1 3d 1d 8b 18 3d 49 53 ca bc
       0.0025987048 0.11026158 0.037242044 -0.024697917
000180 c2 af 8e be b9 58 f2 bc aa 40 03 bf 58 a7 97 be
       -0.27868468 -0.029583322 -0.51270545 -0.2961986
000190 5e cc 4c 3e 12 87 0c 3e 65 bb 1d 3d e5 32 00 3e
       0.19999835 0.137234 0.03850879 0.12519415
0001a0 ba de 23 3e 33 a8 df be cc 43 d8 bd f9 2e ef be
       0.16002932 -0.43683013 -0.10559806 -0.46715525
0001b0 2a ae 94 3e 87 bd b9 3d 62 6c c6 3d 00 e8 d5 be
       0.29039127 0.090693526 0.09688641 -0.41778564
0001c0 dc 1c 86 3c 87 7f 33 be cf 4a 24 bc 18 04 9f be
       0.016371183 -0.17529117 -0.010027601 -0.3105781
0001d0 f7 af 8d 3e bc bf 2e 3d b5 2f 1a bf 17 40 09 bf
       0.27673313 0.04266332 -0.60229045 -0.5361342
0001e0 0c ad 46 bc 9c 9b 66 be 96 69 5f bd 37 e8 fa 3b
       -0.0121262185 -0.22520298 -0.054544054 0.0076570767
0001f0 c7 c0 a0 bc e8 2a 97 3d dd 25 5c be 1d dd 25 3e
       -0.019623173 0.073812306 -0.21498819 0.1619763
000200 88 75 f0 3d 23 0b 10 bf e3 46 9c bd af ab 9a bd
       0.11741167 -0.56266993 -0.07630708 -0.07552277
000210 47 14 39 3c 26 8c 33 bb 98 95 15 be 72 12 54 be
       0.011296338 -0.0027396767 -0.14607847 -0.20710161
000220 bc 4c 2b 3d 1a df 04 bd 74 60 05 bd 7e 14 c0 3d
       0.041821226 -0.03243933 -0.032562688 0.093789086
000230 08 ac 79 3e d0 91 c0 be c2 c0 e5 bc 10 38 57 bd
       0.24382031 -0.37611246 -0.028046016 -0.0525437
000240 0a c9 b3 bd 0f 7d 88 be 6c bb 80 be d3 a5 a0 be
       -0.087785795 -0.26657912 -0.25142992 -0.31376514
000250 07 30 90 3c a0 bb df be 31 4f 35 3d af f6 1e 3e
       0.017601026 -0.43697834 0.044264976 0.1552379
000260 3a 00 7b 3d 55 94 81 3d 32 c5 b3 be 51 ac b2 3d
       0.061279513 0.0632712 -0.35111386 0.08724273
000270 fd be 1f 3e 57 10 38 3d 55 bb 67 be c0 fe e1 3c
       0.156002 0.044937458 -0.22630055 0.027587295
000280 5c 8f d6 be bd 77 d4 be fd db 97 bd 8b e5 cb be
       -0.4190625 -0.41497603 -0.07415006 -0.39823565
000290 41 d2 63 bd 32 0d e9 be 9f 3c bb 3d df 36 b6 3d
       -0.055620436 -0.4551788 0.09142422 0.088971846
0002a0 36 cf c2 be ad a5 93 be a6 50 bf be 2a 3b ae be
       -0.38048714 -0.28837338 -0.37366217 -0.34029514
0002b0 62 34 97 bd 33 61 1a be e3 68 df bd 5a f4 d9 3d
       -0.07383038 -0.15076141 -0.109086774 0.106423095
0002c0 4a 36 42 3e c7 29 31 3e 3b 8c 0c 3d 4b 68 08 bf
       0.18966022 0.17301093 0.03431342 -0.5328414
0002d0 e1 54 6e be 19 1c ad 3c 0f 12 b0 be c4 11 b4 bc
       -0.23274566 0.021131562 -0.34388778 -0.021981128
0002e0 be b5 38 3d b8 31 9d 3c ed 2a a2 be 80 0e 36 be
       0.045095198 0.019188747 -0.31673375 -0.17778969
0002f0 c8 64 92 3d 66 6b cc be 9f cc 34 3d be 0b b7 3c
       0.07148129 -0.39925689 0.044140454 0.022344466
000300 f5 cc c4 3d f8 60 2d 3d 6c 2c 85 bd 18 2e f5 be
       0.09609405 0.042328805 -0.065026134 -0.4788673
000310 17 c9 db 3d b7 a4 9d be ab 0b 9a 3c 6c cc 04 3e
       0.10731714 -0.3078973 0.018804392 0.12968606
000320 de 6f d6 3d 25 04 b5 3d 2d b4 a7 be 2f f7 5c be
       0.10470556 0.08838681 -0.3275465 -0.21578668
000330 db 62 98 bc cc 04 fd be 7d a2 38 bd da 59 1f 3e
       -0.018601825 -0.49417722 -0.045076836 0.1556162
000340 01 47 04 3d 2a 26 f3 bc 92 ee 90 3d 20 94 33 3e
       0.032294277 -0.029681284 0.07076754 0.17536974
000350 c3 6b c7 be 77 3c a1 be bf 17 d1 be 43 0d ad be
       -0.38949403 -0.31491444 -0.4083843 -0.3379918
000360 f2 10 5b 3e 42 7d a9 3d d4 e8 3a 3e 24 5f 2e 3e
       0.21393183 0.08275844 0.1825288 0.17028481
000370 8a 3a af be 0a dd 64 be 38 46 19 bd f8 26 18 3d
       -0.3422435 -0.22349945 -0.03742048 0.03714654
000380 43 35 e5 be 3d 74 3c 3d 73 1b 9d 3d 1c 17 1f bd
       -0.44767198 0.04600929 0.07671251 -0.0388404
000390 72 e7 f3 3d 83 49 4e bd fc ce ab 3c 7c aa ad be
       0.11909379 -0.050363075 0.020972721 -0.33919132
0003a0 37 bb c2 be 09 f4 7a bd b5 7b 9a be 5f 4a 22 be
       -0.3803346 -0.061267886 -0.30172506 -0.15848683
0003b0 d2 2c 62 be 1f be b1 be 1e c1 21 be d0 1e 1a 3e
       -0.2208741 -0.34715363 -0.15796325 0.15050817
0003c0 f6 87 a3 3c c9 91 2f bd d1 e5 5b 3e 6c 0a ea 3c
       0.019962292 -0.04286364 0.21474387 0.028569423
0003d0 c7 3d c7 bd 75 3a b8 3d c8 5a 53 be e3 3d 82 3c
       -0.0972858 0.08995525 -0.20640099 0.01589865
0003e0 3b 2c 03 bd 35 d6 05 3e a6 3d 36 3e 38 0d e6 3d
       -0.032024603 0.13069995 0.17796955 0.1123299
0003f0 ba 9d 2f bc 15 b9 37 3e 35 ba a3 3d 9a cd d6 3d
       -0.010718757 0.17941697 0.079945005 0.10488434

hidden_layer2.weight f4 [128, 256]
000000 73 fe 05 bd 63 2e 0a 3d 6f 72 c2 3c e5 b4 a6 bb
       -0.032713365 0.033735644 0.023736207 -0.0050874823
000010 6e 5c a7 bc 73 24 57 3c 8c d6 57 3c de 88 0d bd
       -0.020429816 0.013131249 0.013173711 -0.034554355
000020 ed fd de bc 21 a2 8e bc e4 22 1e 3d c7 5c 01 3d
       -0.02722069 -0.017411293 0.038607493 0.03158262
000030 c5 84 b6 3c db 65 ce bb 52 fb 1e 3c 1d cc 52 ba
       0.022280106 -0.006298763 0.009703474 -0.00080412795
000040 18 3d ba bc ae 44 5f bd 1e 33 62 bd 51 31 50 bb
       -0.02273421 -0.054508857 -0.05522453 -0.0031767676
000050 b1 e5 1c bd db 9e 17 bd 04 74 81 bd dc 27 2f bd
       -0.03830499 -0.03701673 -0.06320956 -0.042762622
000060 b7 e8 1b 3c 9b 08 89 bd d8 93 ec bc c5 86 6d bd
       0.009515933 -0.066910945 -0.028879091 -0.057989854
000070 b2 97 47 3d 9c a4 b6 bb 80 bb 0e bd f9 b8 40 bd
       0.048728652 -0.005573822 -0.034846783 -0.047051404
000080 2b 05 b7 bc 81 a6 16 3d b9 1e 52 bc fe e4 40 3d
       -0.022341331 0.036779884 -0.012824708 0.047093384
000090 da eb 1a 3d bb 7f a1 3c 67 82 32 bd ec d4 f7 bc
       0.03782258 0.019714227 -0.043581393 -0.030252896
0000a0 b6 1e 7d 3c 3a 28 17 bd 3b dd 35 bd 9a a2 c0 bc
       0.015449217 -0.036903597 -0.044400435 -0.023515034
0000b0 e1 fe fa 3c d8 83 11 3d ec a3 22 3d 35 08 08 bd
       0.030639114 0.035526127 0.03970711 -0.03321095
0000c0 3f 64 de 3c 21 b0 07 3b 78 8a f4 bc fa 95 2d bd
       0.02714741 0.0020704346 -0.029851183 -0.042379357
0000d0 13 77 2a 3c be 82 1f bd 0c fb 2e bd 0b 7d f2 3b
       0.010404366 -0.038943045 -0.042719886 0.00740016
0000e0 8f 4b 2f bd 70 8b 25 bd 97 87 8e 3c f6 26 91 bd
       -0.042796668 -0.04041618 0.017398639 -0.07087509
0000f0 cc 2e 68 3c 4c 3d f0 3c 27 e6 d8 bc d0 b5 e7 bc
       0.0141713135 0.029326104 -0.026476933 -0.028284937
000100 90 97 28 3d db 6c 96 bd 10 ad d1 bc 15 78 d8 bc
       0.041160166 -0.07344981 -0.025595218 -0.026424447
000110 fb 52 40 3d eb 07 b3 bc c6 51 b0 bc 05 20 18 3d
       0.046954136 -0.021854362 -0.021523368 0.03713991
000120 57 43 42 bd 3a 68 93 bc 29 09 50 3c a9 ad 3a bd
       -0.0474275 -0.017994035 0.012697496 -0.04557577
000130 0e 24 44 3c 19 90 29 bd 69 27 52 bd ec cd a2 bc
       0.011971487 -0.041397188 -0.051307116 -0.019873582
000140 ce c4 22 bc 9b a9 84 3c ca 03 5f bd bd 4f e1 bb
       -0.009934617 0.016194155 -0.054446973 -0.0068759606
000150 9f a4 27 3d 9e 80 46 3d aa ae 1e bd ae 0d 66 ba
       0.04092848 0.048462503 -0.03874079 -0.0008775842
000160 bf c5 bd bc aa 11 07 bd c2 50 0a 3c a3 75 93 3b
       -0.023165582 -0.03297583 0.008442106 0.0045001074
000170 2e 4f 3f 3b 9f bc 2c 3d 07 d9 27 bd d9 ec 13 3d
       0.0029191482 0.04217207 -0.040978458 0.036114547
000180 0e 29 02 bd 0c a8 1b 3d ea 6d 8f bd 2a 84 87 b9
       -0.031777434 0.03800206 -0.07003386 -0.00025847676
000190 65 8c 2f bd 96 d8 3f bd 22 fa dc bc 62 38 d6 3c
       -0.0428585 -0.04683741 -0.026974741 0.026149932
0001a0 c5 81 92 bd 3b 0c 01 bd c8 0a 43 bd 98 da f1 3c
       -0.07153658 -0.031505805 -0.047617704 0.029523179
0001b0 98 93 a7 bc f6 90 26 bd 3a ee 97 bc 4f 39 4c bd
       -0.02045612 -0.04066559 -0.018546212 -0.04985934
0001c0 03 d0 90 bd 21 10 2e bd 55 34 53 bd a5 15 9a bd
       -0.07070925 -0.04249585 -0.05156358 -0.075236596
0001d0 e5 e6 08 3d f8 97 f0 3b 35 2a 17 bd 95 cf 42 bd
       0.033423323 0.007342335 -0.036905486 -0.047561247
0001e0 05 6e 65 bb 74 73 5d bc 23 b0 d5 3c d3 20 50 bd
       -0.0035008204 -0.013516296 0.026084965 -0.050812554
0001f0 52 e2 bc 3c e8 7a 4b 3d 6d 3d 15 bc d4 2d a6 bc
       0.023057137 0.04967776 -0.009108883 -0.020285524
000200 e7 7e 32 bd df cf 30 bd 1f 5b 3f bd 32 67 2f bc
       -0.043578055 -0.04316699 -0.04671776 -0.010705756
000210 6c 8a 88 3c aa e7 28 bd 5e 8f 3b bd 59 70 3e 3d
       0.016667567 -0.041236557 -0.045791022 0.04649386
000220 57 e5 67 bd 6c ed 61 bb 85 68 5c bd 5b b0 47 3d
       -0.0566152 -0.003447379 -0.053810615 0.04875217
000230 31 38 c7 bc 9a 5c cd ba c9 e7 d4 3c 50 bd 66 bd
       -0.024318786 -0.0015667856 0.02598943 -0.056332886
000240 a5 42 d2 3c 29 01 f5 3b b8 c5 fd bc b8 6c 30 bd
       0.025666544 0.007476945 -0.030978069 -0.043072432
000250 c9 32 8f 3c 55 7c 02 3d 1a 47 73 bd ff 95 52 bd
       0.017480271 0.031856854 -0.05939398 -0.05141258
000260 f7 54 cf bc c2 ff 36 3d ad c6 97 bc d4 31 36 bd
       -0.02530907 0.044677503 -0.018527353 -0.044481114
000270 05 bb 96 bd a2 1b 24 3d de 49 8d bd 73 12 0d bc
       -0.0735989 0.040065415 -0.06898855 -0.008610356
000280 32 0e 8a bd 17 01 7c bd de a9 2f bc 76 d5 30 bd
       -0.06740989 -0.061524477 -0.010721652 -0.043172322
000290 33 d3 1f 3d e6 33 e7 bc e3 ec 1e bc cd e7 f5 3c
       0.039019775 -0.02822299 -0.009700033 0.030017758
0002a0 af 5c 16 3d f9 d4 5c 3c 31 c1 29 bc d1 e7 e4 bb
       0.036709484 0.013478511 -0.010361002 -0.0069856425
0002b0 be ca d1 b9 31 16 b0 3b 1e 33 f7 3c 96 d3 44 3d
       -0.0004001464 0.005373739 0.030175742 0.048053347
0002c0 ca 9a 3c bd 8d 83 c0 bc e3 a7 63 3c d4 89 7c bd
       -0.046046056 -0.023500228 0.013895008 -0.06165488
0002d0 c7 87 3e 3d b7 00 8f bb 33 ef f7 bc 1d 99 ed bc
       0.046516206 -0.004364099 -0.030265426 -0.029003674
0002e0 a6 2f 12 bc bc d6 69 3c 39 d2 e1 bc d7 c8 02 bd
       -0.008922493 0.014272388 -0.027566062 -0.031929817
0002f0 dd 01 34 3d b4 db 97 bc 63 7a 37 bd cd 48 81 3c
       0.04394709 -0.01853738 -0.04479445 0.015781784
000300 e6 59 fe 3c 25 b0 3e bb 08 50 14 bc 94 76 1f 3b
       0.031048726 -0.002909669 -0.009052284 0.0024332153
000310 6a 53 8e bd 2e cb 89 bd 82 83 a0 bc 99 fa 13 3c
       -0.06949504 -0.067282066 -0.019593958 0.009031915
000320 cd 16 6a bd 53 3c 1a 3b 25 83 3b bd e1 64 44 3b
       -0.05715065 0.0023534491 -0.045779366 0.0029967355
000330 e3 10 8c bd f6 0d d1 3c a1 cc 00 3d e4 4a ba bc
       -0.068391584 0.025519352 0.03144515 -0.022740789
000340 55 ff 55 bc c2 8a 80 3c 70 ad 83 bc a6 fe 77 bd
       -0.013061364 0.015691165 -0.016073912 -0.060545586
000350 5c 8d f6 bc 36 5c 9a bd bb 60 62 bd 12 91 91 bd
       -0.030096702 -0.07537119 -0.05526803 -0.07107748
000360 01 16 7b bd 2c 53 a0 3c 1f d9 7f bc 2b 41 27 bd
       -0.06130028 0.01957091 -0.015615731 -0.040833633
000370 0c 83 3b 3b 76 33 fd b9 d4 3f ad ba 0f 4e 5b bd
       0.0028612046 -0.00048294262 -0.0013217875 -0.05354124
000380 be b7 0e 3d 0f ef 27 bd e9 2e 01 3d ba 2e f8 3c
       0.0348432 -0.04099947 0.031538878 0.030295718
000390 12 ee 67 3c 61 03 e3 3c 2e 7c 3a 3d e2 98 7d bd
       0.0141558815 0.027711572 0.045528583 -0.06191338
0003a0 a1 67 31 bc 47 f8 13 bd 83 c6 25 bd 59 c6 8f bd
       -0.01082793 -0.036125448 -0.04047252 -0.07020254
0003b0 0b 39 12 bd 6f 9b ad bc 03 fc 33 3d 09 63 d2 3c
       -0.03569893 -0.02119228 0.04394151 0.02568199
0003c0 e1 cb e6 bc 40 24 0d bd 75 66 80 bd d9 fa 3e bd
       -0.028173389 -0.0344584 -0.06269542 -0.046625946
0003d0 11 4f 59 bd 09 13 1a bd 4f aa 82 bd a8 d5 42 bc
       -0.05305392 -0.03761581 -0.0638014 -0.01189176
0003e0 4b e5 85 bd 64 98 0f bc b2 83 fa 3b db 35 15 3c
       -0.06537875 -0.00876436 0.007645094 0.009107078
0003f0 f5 a6 8e 3c 9b 7d 39 3c f2 62 d1 3a ea 86 26 3b
       0.017413596 0.011321451 0.0015974923 0.0025410005

hidden_layer2.bias f4 [128]
000000 b6 5b d3 3b 83 67 84 3d 87 4f e4 3d a4 12 a9 3a
       0.006450142 0.06465056 0.11147981 0.0012899232
000010 01 62 a9 3d a0 58 f3 3d 6d dd 5f 3d 31 6c f2 3d
       0.08270646 0.11882138 0.054654527 0.11837042
000020 6c 5f 0e 3d 48 96 7a bd 1c 60 bc 3c 07 53 31 3c
       0.03475897 -0.061178476 0.022995047 0.010823018
000030 a5 fc 28 bd ad e2 c1 3b 7d 0f 3e 3d 5a ff bd 3c
       -0.041256566 0.0059169144 0.04640149 0.02319305
000040 89 04 59 3d f2 84 ca 3d 42 73 db 3d c2 69 d4 3d
       0.05298284 0.098886386 0.10715343 0.10371734
000050 27 ff 79 3d 0b 28 5c bd 9e ed 77 bd ec 09 03 3e
       0.061034348 -0.053749125 -0.060529344 0.12796754
000060 23 83 85 bd df e9 29 bd 09 08 8e bc 17 a3 1a 3d
       -0.06519153 -0.041482802 -0.017337816 0.03775319
000070 cf 6b 01 3c fc 29 e3 3d 7f 6d b3 bc 7e d3 70 3c
       0.007899239 0.11091992 -0.021902798 0.014698861
000080 e7 44 c6 3d a2 fb d5 3a 49 e6 87 3d e6 85 df 3d
       0.09681111 0.0016325603 0.0663572 0.10914211
000090 7b 48 0a 3c 97 09 2a bd ee e6 66 3d 9f 20 c2 3d
       0.008440132 -0.04151305 0.056372575 0.09478878
0000a0 16 c7 c5 3c da c1 62 3d ef 89 c6 3d 03 4e 4b 3c
       0.024142783 0.055360653 0.096942775 0.012408736
0000b0 0d 64 b9 3d ff 65 9f 3c 59 1c 84 3d db 97 64 3c
       0.09052286 0.019457815 0.064507194 0.013952221
0000c0 85 28 26 3d 10 f2 96 3d f3 71 d9 3c d0 1b df 3c
       0.040565986 0.073703885 0.026543593 0.027234942
0000d0 7d 5b 80 3d 2a 85 98 3c 60 c5 3f 3d bf 56 f2 3b
       0.0626745 0.018618185 0.04681909 0.007395595
0000e0 10 da a8 3d 98 3d d2 3e fe d2 72 3d d1 53 89 bd
       0.08244717 0.41062617 0.05928325 -0.0670544
0000f0 4f c0 a5 bb 99 d0 e7 bb d0 f8 4c 3d 49 73 d6 3d
       -0.0050583254 -0.0070744273 0.050041974 0.10471208
000100 9b c8 e7 3d af 94 c1 3d 61 1b 6d 3d ce b1 b5 3c
       0.11317559 0.09452187 0.05788744 0.02217951
000110 31 b3 2b bd b2 04 1a bd 6d 5d ff 3c 8f 53 4b 3c
       -0.041918937 -0.037602134 0.031172479 0.012410059
000120 89 25 df 3b ab ed 79 3d 3f 38 09 3e 41 d3 27 3b
       0.0068098945 0.061017673 0.13400362 0.0025608095
000130 42 88 ad 3d 81 72 15 3c 2c 14 c4 3d 23 60 b0 3d
       0.08473255 0.009121538 0.0957416 0.086120866
000140 1e ce 82 bd 70 b1 01 bd 98 4c a9 3d 45 da 9e 3d
       -0.0638697 -0.03166336 0.08266562 0.07756475
000150 d5 32 05 bd 5b 18 62 3d 27 81 ac 3c d1 9f c8 3a
       -0.03251918 0.05519901 0.021057678 0.0015306418
000160 02 e3 77 3d 10 1f b9 bc 62 20 9e 3d b7 b6 ef 3c
       0.060519226 -0.02259782 0.0772102 0.02926193
000170 77 4f ad 3d c9 84 aa 3d cf e8 08 3d 96 e8 78 3d
       0.08462422 0.08326108 0.03342515 0.060768686
000180 4a 7c 94 bc 2f 5f 00 3e 8b 12 d3 3c 0a 75 cd 3d
       -0.018125672 0.1253631 0.025765678 0.10032089
000190 4d 3d 49 3d 95 1e 7c 3c 92 91 d3 bc 8c 2c 02 3c
       0.049130727 0.015388151 -0.02582625 0.007945191
0001a0 84 a4 14 3d a9 b1 4d 3d 5e e4 3a bd b2 b4 8d bd
       0.036289707 0.050218258 -0.045627944 -0.069192305
0001b0 2a 6b 4d 3d e8 f9 65 bd 80 bd ad 3d 7d aa ef 3c
       0.050151028 -0.056146532 0.0848341 0.0292561
0001c0 71 e6 74 3c 16 58 bd 3d c1 5d c3 3d e2 e4 00 3d
       0.01494752 0.09245317 0.095393665 0.03146828
0001d0 64 25 93 3d ce 8f 00 bd 89 6b 84 bd 3d 4c c0 3d
       0.07184866 -0.031387143 -0.06465823 0.09389541
0001e0 d1 da 8b 3d de 61 2e 3e 2b f3 86 bd d9 e7 8d bd
       0.06828845 0.17029521 -0.06589349 -0.06928987
0001f0 db 9b f6 3c b7 fb 88 bc a7 b7 db 3c e6 d5 36 3d
       0.030103615 -0.01672159 0.02682097 0.044637583

hidden_layer3.weight f4 [32, 128]
000000 a6 e4 96 bd a3 2b 8b 3d f6 46 a0 bd f2 fa 39 bd
       -0.0736783 0.067954324 -0.07826035 -0.045405336
000010 5c 3b a2 bc 06 58 83 b8 38 6f a7 3c 1d 82 e1 3a
       -0.019803695 -6.2629624e-05 0.020438775 0.0017204914
000020 8e d4 8c 3d 9f 71 9e 3d a1 33 99 bd e4 f2 c4 bd
       0.06876479 0.07736515 -0.074805506 -0.0961664
000030 2a 55 c1 bd d0 36 5c bd 18 3a 13 bd 1f 1d a5 3d
       -0.09440072 -0.05376321 -0.035944074 0.08062195
000040 59 a8 8a bd 1d f5 13 3d 9e 2c 88 bd d4 7e e4 bc
       -0.06770391 0.03612243 -0.06649135 -0.027892508
000050 95 c5 8d bd f4 82 bc bc 0c 6e 9e bd ed bd 75 bc
       -0.069224514 -0.023011662 -0.077358335 -0.014998895
000060 ab 24 f2 3c c9 29 09 3d c0 4a 95 bc b7 57 08 3d
       0.0295585 0.033487115 -0.01822412 0.033286776
000070 cd f7 97 bd 94 93 a8 3c 2d fe ea bc e1 a2 43 3d
       -0.07420311 0.020578183 -0.028685654 0.047762755
000080 07 4c 81 3d ef e6 ce bc ea bf 81 bc b2 37 9d bd
       0.06313329 -0.025256602 -0.015838582 -0.07676639
000090 f3 f5 ab bd 7d 06 a7 bd 02 fa ff bc ce 4d a7 bc
       -0.083965205 -0.081555344 -0.031247143 -0.020422842
0000a0 9b 5f bc 3c 77 0a 87 3d 74 eb 0a 3d 6c b7 3b bd
       0.022994807 0.06593793 0.03391595 -0.04582922
0000b0 1c 2e 8f bc b8 f7 72 3d 27 ee f6 3c 7c a1 0c bd
       -0.017478041 0.059318274 0.030142857 -0.03433369
0000c0 a5 42 9a bc 39 15 04 3d 8f e1 b2 bc e9 99 67 bd
       -0.018830607 0.032246802 -0.02183607 -0.056543265
0000d0 0b f0 20 3d fc d7 43 3d 9b 40 9c bd 90 37 4c bc
       0.039291423 0.0478134 -0.0762951 -0.012464419
0000e0 bd 2c b7 bd bd c9 9b bd 8d 3b 0d bd 09 ea 0b bd
       -0.0894408 -0.07606838 -0.03448062 -0.03415874
0000f0 bb 5b ce bc 31 31 27 bc 13 d4 89 bd b7 3f ad bd
       -0.025190225 -0.010204599 -0.06729903 -0.08459418
000100 f6 3e 60 3c 53 65 92 3d 58 f7 50 bd f7 9e 80 bd
       0.013686886 0.07148232 -0.051017135 -0.0628032
000110 54 a7 60 3b 64 1a cd bc d6 8f 21 ba 52 e4 25 bd
       0.0034279423 -0.025036998 -0.0006163096 -0.040500946
000120 92 fb 2a bc 8c a5 b3 3c 04 55 b6 3c dc bf 5e bc
       -0.010435956 0.021929525 0.022257335 -0.0135955475
000130 77 9d a1 bd f6 25 4d bd b2 5f a4 3b 41 8d 0d bd
       -0.07891362 -0.05008503 0.0050162906 -0.03455854
000140 3c 2b 05 3d 95 8f 15 bc b6 c3 1d 3d 7a 1f d7 bc
       0.032511935 -0.009128471 0.038516723 -0.026260126
000150 a8 aa 93 3c 85 01 bc bd f3 95 b1 3c f2 95 40 bd
       0.018025711 -0.09179977 0.021677947 -0.047018
000160 35 ab 8d 3d a6 d6 f7 bc 0e b3 9b 3c 40 21 dd bc
       0.06917421 -0.03025372 0.019006278 -0.026993394
000170 e8 7c a7 bd 86 5b 98 3d 63 92 6e 3d 47 80 2e 3d
       -0.08178121 0.07439332 0.058245074 0.042602804
000180 b0 94 66 bd ef 72 87 3d ff c6 ad 3b 45 45 24 bc
       -0.056294143 0.06613719 0.005303263 -0.010026281
000190 87 44 2b bd 47 1e 26 bc 76 f1 67 3d 3b c3 3c bd
       -0.0418134 -0.010139055 0.05662676 -0.046084624
0001a0 9f 80 37 bd 49 a3 e0 bc e5 8c 9d 3c a0 34 b2 bc
       -0.044800397 -0.02742161 0.019232223 -0.02175361
0001b0 f5 c6 29 bd 78 36 9e 3d fc 49 ba bc f1 10 09 bd
       -0.041449506 0.07725233 -0.022740357 -0.033463422
0001c0 a1 61 78 3d a0 05 bb bc 05 b3 97 bd f2 40 9a 3d
       0.06063998 -0.02282983 -0.07407192 0.075319186
0001d0 3a a0 da 3a 28 73 94 3d 97 c6 4c 3d 2e 9b 24 bc
       0.0016679831 0.07248527 0.049994078 -0.010046763
0001e0 60 11 62 3d 4c b4 6e 3d 6f f9 9c 3d 07 3e 1a bd
       0.05519235 0.058277413 0.07664763 -0.03765681
0001f0 f8 8a f1 bc 89 cf d8 bc 24 ac 8e bc cf 3c 11 bd
       -0.02948521 -0.026466148 -0.017416067 -0.035458382
000200 9c 5c 58 3d fd 39 d8 3d 31 00 5e 3d bc b7 84 bc
       0.052822694 0.105579354 0.0541994 -0.016200893
000210 fc 99 d8 bb 5f 61 12 3e 55 58 ad 3d 8b 4e 10 bd
       -0.0066101532 0.14294957 0.084641136 -0.035231154
000220 43 1d ab 3d d5 eb 19 bd a8 bf bd bc 1b 05 b6 3d
       0.083551906 -0.037578423 -0.023162678 0.088876925
000230 72 f7 23 bc 7c 4e ec 3c a8 88 8a 3d ee e9 c4 3d
       -0.010007726 0.028846018 0.06764346 0.09614931
000240 b1 09 e8 bc 78 75 3c 3c 96 31 52 3d f7 db 17 3d
       -0.028324934 0.011502616 0.05131682 0.03707501
000250 39 36 ca 3c 5d 2e ed 3d 3f 14 b6 bb 5d cd c8 3d
       0.024684059 0.11581109 -0.0055566127 0.09804795
000260 73 3c be 3d b0 19 7c bc 64 9c c9 3d 48 1b 29 bd
       0.092888735 -0.015386984 0.09844282 -0.041285783
000270 8b 92 d8 3d fc 2f 47 bd 54 9a bf bc 95 a2 b6 3d
       0.10574826 -0.048629746 -0.02338902 0.08917729
000280 d6 1d 41 3c 38 d6 cc 3c 60 21 3a 3d 20 a9 1d 3d
       0.011786899 0.025004491 0.045441985 0.03849137
000290 4a 62 86 3d 11 75 6a 3d 33 1c e2 3d 56 08 a8 3d
       0.06561716 0.05724055 0.11040535 0.08204715
0002a0 90 bc 65 bd 45 12 89 bc 16 f4 5e ba 4d c5 cb 3c
       -0.05608803 -0.016732344 -0.00085049996 0.024874354
0002b0 72 40 81 3d 64 d0 b6 3d 28 45 5c 3d 7a 42 ac 3c
       0.0631112 0.08926466 0.05377689 0.021027792
0002c0 94 26 04 3e 73 10 14 3b 56 57 ca 3c e9 2a 5e bd
       0.12905341 0.0022592812 0.024699848 -0.05424014
0002d0 c0 6a 68 3d 39 7f b0 3d 5a 0c ca 3d cd 3e 36 bc
       0.05674243 0.08618016 0.09865637 -0.011123371
0002e0 d9 6f 03 3e 66 ca f8 be 60 b8 c6 3d 2e 11 c7 3d
       0.12835635 -0.48591918 0.097031355 0.09720074
0002f0 55 c4 a3 3d 53 cc 34 3c 41 94 7b 3a e7 bf ab bc
       0.07996432 0.011035043 0.00095969817 -0.02096553
000300 90 aa 1b 3d 18 55 ec 3d 1b 58 5b 3d d9 b0 a4 3d
       0.038004458 0.11539668 0.05355082 0.080415435
000310 91 bc bb 3d 53 f3 10 3d 3b bf aa 3d 43 c7 99 bd
       0.091668256 0.035388302 0.083372556 -0.07508709
000320 06 8d fb bc 82 9b 2d 3d 3d d7 9e bd b1 f1 de 3d
       -0.030706894 0.042384632 -0.07755897 0.10885943
000330 8e d9 7d bb 32 0c ff 3d 7a b6 20 bd a0 11 f1 3d
       -0.003873441 0.12453498 -0.039236523 0.1177094
000340 b1 76 06 bc 01 f3 59 bc 37 51 d6 3d 60 99 d7 3d
       -0.008207009 -0.013302566 0.10464709 0.10527301
000350 06 89 83 3d 97 2a d6 bc 80 9f ff 3d dc 25 66 3d
       0.064226195 -0.026143355 0.12481594 0.05618845
000360 6f 51 f3 3d bc 6d c7 3d 8a 9b f5 3d d1 48 6e b9
       0.118807666 0.09737727 0.11992557 -0.00022724575
000370 79 e1 77 bc a7 42 f9 3d 50 43 71 3d 48 00 8c 3d
       -0.01512944 0.12170916 0.058902085 0.06835991
000380 5f d5 2e bd 05 8c 82 3d 31 4c 24 3d a3 88 07 bd
       -0.042683955 0.06374363 0.040111724 -0.03308929
000390 b1 09 11 bd e3 06 c6 3d 28 90 f9 bc d3 b1 e6 bc
       -0.035409633 0.09669282 -0.030464247 -0.028160965
0003a0 9b 9e ac 3d b4 19 af 3d 57 a5 46 3d 6c 8a 89 3d
       0.08428689 0.08549824 0.048497524 0.06715855
0003b0 bb 43 83 3d ad e0 58 bd 58 a3 b9 3c e9 4c 6c 3d
       0.06409403 -0.052948643 0.022660896 0.057690535
0003c0 a1 72 0c 3c f8 28 44 bd f5 ed f6 3d 07 a7 df 3c
       0.008572252 -0.047890633 0.120571055 0.027301325
0003d0 2d 3d de 3c b2 60 8d bd ab 20 c3 3d b3 ce 0e 3c
       0.02712878 -0.06903209 0.09527715 0.008716273
0003e0 28 af 95 3d ca 0f 96 be c3 28 84 bd 94 60 91 3d
       0.07308799 -0.2930892 -0.06453087 0.07098499
0003f0 20 fb 2c bc 6f ca 0f bd cd 43 54 3c d8 73 7b bc
       -0.01055792 -0.035105165 0.012955618 -0.0153474435

hidden_layer3.bias f4 [32]
000000 49 1f 95 3b d4 ee 10 3e 98 a7 9f bd 87 f4 c3 bc
       0.0045508486 0.14153606 -0.07795638 -0.02392031
000010 8e 1c 7c bc a3 17 48 3e 9a b3 2d 3e 5e 52 19 bc
       -0.015387667 0.19540267 0.16963044 -0.009358017
000020 48 55 8f 3d 76 6a 12 bd a5 31 69 3d a2 bd 8b 3d
       0.06998688 -0.03574606 0.05693211 0.06823279
000030 81 d9 99 3d d2 92 8f 3d 13 ee be 3d 7d 55 a8 bc
       0.07512189 0.070104256 0.09322753 -0.020548576
000040 0d 6e 77 3d 6a 96 5f 3e d7 80 37 bd 8b b2 05 bc
       0.060407687 0.21834722 -0.044800606 -0.008160244
000050 ef f2 29 3c 61 62 ca 3d db 71 c3 3d da 5c 15 bd
       0.010372861 0.098820455 0.095432006 -0.036465503
000060 35 2f 36 3e c6 8f 6f 3e 71 1b 4e 3c 10 57 07 3d
       0.17791446 0.23394689 0.012579785 0.033042014
000070 c5 eb c1 3c 29 21 77 3d 33 71 68 bd 8d 3f e8 3b
       0.023671994 0.06033436 -0.05674858 0.007087654

output_layer.weight f4 [1, 32]
000000 a4 98 0b be 04 97 98 3d 35 74 d3 bd f7 22 91 bd
       -0.13632447 0.07450679 -0.10324899 -0.07086747
000010 15 f5 0f be cf 61 04 be e4 3e be be c0 2d ef bd
       -0.14058335 -0.12927936 -0.37157357 -0.11678648
000020 a2 b5 c2 3c a4 c5 91 bd 73 b8 35 3e d9 fa 97 39
       0.02376825 -0.07117775 0.17746143 0.0002898786
000030 d1 cc ac 3d 50 e9 1a 3c 37 c7 e2 3d a9 24 e0 bd
       0.08437503 0.00945504 0.110731535 -0.10944492
000040 f0 99 58 3c 35 b1 c2 be 8e 72 ce bd 99 c3 d9 bd
       0.013220295 -0.38025823 -0.10080443 -0.106330104
000050 20 4a 6c 3d 9a 4e 3e 3e 54 49 0b 3d 5e 52 ff bd
       0.05768788 0.18584672 0.034005478 -0.12466882
000060 93 23 a9 be 39 44 0e be be 32 5a 3d 67 67 4b 3e
       -0.33034953 -0.13893212 0.053271048 0.19863664
000070 b1 75 7a 3d 3c 42 aa bd 77 3c 2e bd 4c 00 2c b9
       0.061147396 -0.083134145 -0.042538133 -0.00016403309
