regression_model_huber.pth (torch, 83935 bytes, 7 tensors)

hidden_layer1.weight f4 [128, 74]
00000000: 46a9 013d 2464 ce3d a1fc 13bc 941a 743e
00000010: 7d9e 2a3c 93e0 67bc a149 dcbe 7d48 90bf
00000020: b791 bf3b ea5f 82bd 1c74 1ebd efa0 883d
00000030: 92f4 573e c485 5d3e cf38 17be 03ba 0fbe
00000040: 8a4e 99bd 4dae 163d e199 09bd a4b7 54bd
00000050: 5c42 113e 8bd0 c23d eb93 06be 08b6 fb3d
00000060: 8872 b33d 1a17 ffbd eaec ee3d 6d02 ea3d
00000070: 419b c9bc 71ad f2bc 4fdd 24be 4232 28be
00000080: c5b3 683d 3f51 ba3d 6a9b eebd 71d6 0d3e
00000090: 2fc2 5c3e 535d 173e 4094 0e3d 7b4f 3fbc
000000a0: 7d64 6c3c 945b 0e3e 7efb 3dbc c5fd 26bd
000000b0: 401e c0bd 3464 27bc 5369 8fbd 0c4a 0e3e
000000c0: c311 053e d589 10be b9f0 1b3e 169e a33d
000000d0: b830 97bd 33be 9ebd d46b 023e a72c 643d
000000e0: b5f3 34be 61d0 94bd 2dae eabd 6a2f 37bd
000000f0: 73f6 203e 5d57 1ebb c5f0 91bd bc2c 013e
00000100: ea7d 973d 5109 1bbc e7dd 0cbd abe0 bc3d
00000110: 7996 58be 64d6 2b3d 40cd 05bd 72f4 80bd
00000120: b54b 43bd 13ac b2bd 6c0f 24bd 43f9 ff3a
00000130: 735f 17bd 66b5 403f 412d d93c 789e 473a
00000140: d8a1 09bd fc6d e03c 1aa1 7cbd f0a0 10bd
00000150: ad9f a13b 957c b83d 2ada e5be 4064 d63c
00000160: f096 ba3d 4010 583e c32e d03d ffbf 223d
00000170: 7e83 0ebc 1754 e2bc 7cf2 ec3d dcba 313d
00000180: e073 3a3e cdf5 e03d 27bc a7be 3648 3cbe
00000190: 48f9 663e 5eef a0be 4844 6abc 95ca 3abe
000001a0: b653 1cbe 3ca5 8ebe 846d 84be 9bbd 9dbe
000001b0: 53a6 6e38 b98b ebbd 383f 013e 9b13 51be
000001c0: b58b 3b3e d8f3 043e 171a 103e b09c be3d
000001d0: be4d 923c d1cf 8dbc ada0 bd3b 087a 2dbd
000001e0: 4ed3 ae3d e1d0 ccbd 1517 4339 559e babe
000001f0: b381 b2be 8fc8 b63d e9a3 c5bd 300e ae3d
00000200: a988 4d3d f218 823d 1752 71bd 42d6 173e
00000210: a4a8 a93d 23f9 9f3d f4d4 6fbc 0a34 923d
00000220: d658 a2be 93bf 8abe 6d2c 173c f67e 2fbe
00000230: deb7 8b3d 94b3 1c3e c118 243e 4932 ab3d
00000240: 521a 88be db24 1dbd 9184 cb3c 3720 e1bc
00000250: 496a 39bd a1f0 463f ded7 b53b a2df 1a3f
00000260: fba1 5ebd 8047 f7bd ad00 d6bc 57ff 1b3d
00000270: b7c8 0f3d 834d c43c 5350 49bd acaf cf3d
00000280: 4edb 563d d34e 36bd b6c9 94bc 2d7e 503d
00000290: e17b e83d 9243 46bd d30d 003d e6d4 3b3d
000002a0: fefa c63d 7ba3 043e 6205 223e 54f6 803c
000002b0: 59e4 a7bc 2e11 e83d 1e18 003e e0d9 c2bb
000002c0: cf84 b3bd 9292 393d b7c4 543e a95f 8abd
000002d0: 4931 18bd 0252 093d eed4 b43b 3253 c4bc
000002e0: b78a 723c ce59 31bd 8264 153d f8bb 9cbd
000002f0: 5dc8 123e 7db7 fc3d c9ca 2e3b 29bd 513d
00000300: 01ee e33d fe78 b63c 5209 933c 7317 883d
00000310: 3b2d 86bc 173b 543c 2a12 0f3e e849 bc3d
00000320: 3bd2 b0bc 5379 b43d c961 363d 9d24 833c
00000330: 0ec3 913c 421f 663d b64c 243d 6277 543d
00000340: 32db b73d 0bc0 0d3d 52f3 df3d 8d6a 003e
00000350: 69d3 bf3d caac 7c3d 7b7c 81bd 1912 b63d
00000360: 77d5 04bd e35f c33d 994c 783d 4bbd 313d
00000370: 437c 1d3d d4a1 ac3c a33e c3bd 5bd0 1a3f
00000380: dfae ea3c 1a63 803f ccf3 733d 4a02 b0bc
00000390: 910f 7c3b 26cd 2ebe 7065 44bd 9fb5 b93d
000003a0: 8988 60be 9984 1cbc 5c78 bb3d 6ffe 6e3d
000003b0: 1969 093d c25c 113e 9ba3 c83d 0b1c 683d
000003c0: 2a98 cd3d 3804 e8bc 1ea7 7f3d 1d40 85bc
000003d0: 7ed8 ae3d c6a3 333e e362 1b3e 4510 903d
000003e0: 86ec f03d 0054 86be c656 0cbe 685d f0bd
000003f0: 2a41 23bd 1792 ea3c 98a3 2d3e 6537 1b3e
0.031655572 0.10077694 -0.009032399 0.23838264 0.010413763 -0.014152664 -0.43024924 -1.1272122
0.005846228 -0.063659504 -0.03868495 0.06671321 0.2108939 0.21633059 -0.14767765 -0.14035802
-0.07485683 0.03678732 -0.033594016 -0.051932946 0.1418547 0.09512433 -0.13142364 0.12290579
0.087620795 -0.12455578 0.116662815 0.11426244 -0.024610164 -0.029623719 -0.16100048 -0.16425422
0.056812067 0.09097528 -0.11650737 0.13851334 0.2155845 0.14781694 0.03480935 -0.011676664
0.014428255 0.13902122 -0.011595605 -0.040769357 -0.0938077 -0.010216761 -0.07002511 0.13895434
0.12995057 -0.14115079 0.15228547 0.07989137 -0.07382339 -0.07751121 0.12736446 0.055706646
-0.17671092 -0.072663076 -0.11459003 -0.044722952 0.15719013 -0.002416096 -0.07126001 0.12614721
0.07397063 -0.00946267 -0.03439131 0.092225395 -0.21151151 0.041952506 -0.032666445 -0.06296624
-0.04767962 -0.08724227 -0.04005377 0.0019529242 -0.03695626 0.7527679 0.026510837 0.0007614861
-0.03360161 0.027396195 -0.061677076 -0.035309732 0.004932365 0.09008137 -0.44893008 0.02617085
0.0911082 0.21099949 0.10165169 0.039733883 -0.008698342 -0.027627988 0.11569688 0.043391094
0.18208265 0.10984383 -0.32760736 -0.18386921 0.22556031 -0.31432623 -0.014298506 -0.18241341
-0.15266308 -0.2786044 -0.25864804 -0.3080872 5.6898523e-05 -0.11501259 0.12621772 -0.20417635
0.18315013 0.12983644 0.14072452 0.093072295 0.017859336 -0.017311009 0.0057869763 -0.042352706
0.08536397 -0.10000778 0.00018605248 -0.36448923 -0.34864578 0.08924972 -0.09650404 0.084988
0.050179157 0.06352414 -0.058916178 0.14827827 0.08284119 0.07811191 -0.014638174 0.07138832
-0.317084 -0.27099285 0.0092269005 -0.17138276 0.06822179 0.15302879 0.16025068 0.083592005
-0.2658258 -0.038365226 0.024843486 -0.027481182 -0.045267377 0.7771092 0.005549415 0.60497487
-0.054353695 -0.120741844 -0.02612337 0.038085308 0.035103526 0.023962742 -0.04914887 0.101409286
0.05245524 -0.044508766 -0.01816259 0.05090158 0.11351753 -0.048404284 0.031263184 0.045857333
0.09715842 0.12952988 0.15822366 0.015742458 -0.020494627 0.11331402 0.125092 -0.005946383
-0.087655656 0.045305796 0.20778166 -0.06756527 -0.037156377 0.033525474 0.0055185473 -0.023965452
0.01480358 -0.043298535 0.036472805 -0.0765304 0.14334245 0.12339685 0.0026671162 0.051205788
0.1112938 0.02227449 0.01794878 0.066450976 -0.01637899 0.012953541 0.13971773 0.09193784
-0.02158462 0.08812203 0.04452685 0.01600867 0.017793205 0.056182154 0.04011222 0.051871665
0.08977355 0.034606975 0.109350815 0.12540646 0.09366495 0.061688222 -0.06322571 0.088901706
-0.03243014 0.09539773 0.060619924 0.043393414 0.038448583 0.02107326 -0.095334314 0.60474175
0.028647838 1.0030243 0.059558675 -0.021485467 0.0038461427 -0.17070445 -0.0479483 0.090678446
-0.21927084 -0.009553098 0.09153816 0.058348116 0.033547495 0.1419554 0.0979683 0.05666737
0.100387886 -0.028322324 0.062415235 -0.016265923 0.08537386 0.17542943 0.15174441 0.07034353
0.11763863 -0.26235962 -0.13704976 -0.11736566 -0.039857067 0.028634114 0.16956937 0.1515785

hidden_layer1.bias f4 [128]
00000000: 1ca3 babf bdc6 c23d 6670 53bf 2187 61be
00000010: 6974 91be bd29 9fbe 07ce 88bf 191e 59bf
00000020: 794f 9fbe 515e 43bf a8af e3be 3050 1fbf
00000030: ebcd 7fbf 1fad a9be e067 0ebf 4441 1ebf
00000040: 7f3f 44be 7fae 74bf 624a 8a3d 00f3 4ebe
00000050: 0768 7bbf 897d bb3d 10e5 2ebf 6e5b cdbd
00000060: dceb 7dbf dce7 0fbf ae8a 69bf ec30 19bd
00000070: 84ff c6be 364b b1bf c1d8 0ebf 1cb1 e33c
00000080: 7d38 013e 3d68 33bf 5a52 59be 6afa e2be
00000090: 0295 fdbe 9293 2fbf 53ff e3be 4019 653d
000000a0: 8a0d e7be 0a3e 85bf c05d eabd 9739 7ebe
000000b0: c2f4 2fbf d39b 57bf f26a 3dbe 8638 09bf
000000c0: fc6a 0ebf 0340 acbf a563 9ebe f5a8 b13d
000000d0: a893 97bf 9f75 2fbf fcd0 6dbe 7a47 e7bd
000000e0: 1720 e8bf 925d 33bf b760 a6be 111f 88bf
000000f0: 55d3 72bf 29b4 3fbe 0962 a1bf 3f8a c1bd
00000100: 0662 8abe b105 e23d fbf8 cabe 36b2 a5bd
00000110: 56e6 9abf 826a 24bf 440e 6b3d 5290 993d
00000120: 8fca 8abf 1ae0 79bf d2a7 81bf 6ef8 c3be
00000130: c3df bcbe c963 523d 0f88 11bd 9e08 84bf
00000140: c2c8 79bf e016 2cbf 7f79 e3bc 4eef e23d
00000150: e388 adbf 8971 47be 9e96 afbd 1411 fbbe
00000160: c916 d1bc 8c9d 5fbd e75d 06bf b9e7 bebf
00000170: e653 c7bf 7766 d0be e724 38bf 045c 75bd
00000180: df04 f1bd 8703 2fbd 45d8 8abf 21c7 5cbf
00000190: 0015 35bf 4191 83be c02d 93bf 5216 563e
000001a0: 9b2c 043c 2b6a ebbe 8dda dcbe ffc1 e53c
000001b0: 1e9e 8bbf ef44 f9be a93c ba3d 6635 59be
000001c0: 2b19 62bf 670c 163e 851e 3abe 80a9 8fbe
000001d0: da0c 38bf a12c 44bf 24fc 97be 1878 28bf
000001e0: 3f6c 30bf 4cb7 98bf 32af 82be aef2 89bf
000001f0: 11e4 07bf 16a3 17be 54ba a63d 0046 4c3d
-1.4581027 0.095105626 -0.8259338 -0.22024204 -0.28409126 -0.3108653 -1.0687875 -0.8481155
-0.3111532 -0.7631579 -0.44469953 -0.6223173 -0.9992358 -0.33139893 -0.5562725 -0.6181834
-0.19164847 -0.9557876 0.06752469 -0.20209885 -0.9820561 0.09154803 -0.6831827 -0.100272045
-0.9918802 -0.56213164 -0.91227233 -0.03740017 -0.38866818 -1.3851078 -0.5579949 0.027794413
0.12619205 -0.7008093 -0.21222821 -0.44331676 -0.49527746 -0.6858455 -0.44530734 0.055932283
-0.45127517 -1.0409558 -0.11443663 -0.24826656 -0.68732846 -0.84222144 -0.18497828 -0.5360187
-0.55631995 -1.3457035 -0.30935398 0.08674804 -1.1841936 -0.6853885 -0.23224252 -0.1129293
-1.8134793 -0.7006465 -0.32495663 -1.0634481 -0.9485372 -0.1872107 -1.2608043 -0.094501965
-0.2702791 0.11036242 -0.39643082 -0.08090632 -1.2101543 -0.6422502 0.05738665 0.0749823
-1.0843066 -0.97607577 -1.012934 -0.38275474 -0.36889467 0.051364694 -0.035530146 -1.031513
-0.9757196 -0.67222404 -0.027767895 0.110808 -1.35574 -0.19476904 -0.0857365 -0.49036467
-0.02552356 -0.054593608 -0.52487034 -1.4914466 -1.5572479 -0.40703174 -0.7193131 -0.059902206
-0.11768507 -0.042727973 -1.084725 -0.86241347 -0.7073517 -0.25696757 -1.1498337 0.20906952
0.008067275 -0.45979437 -0.4313549 0.028046606 -1.0907629 -0.48685405 0.09093601 -0.21211776
-0.88319653 0.14653169 -0.18175705 -0.28059006 -0.7189461 -0.766306 -0.29684556 -0.6580825
-0.6891517 -1.1930938 -0.25524288 -1.0777185 -0.53082377 -0.14808306 0.08141008 0.049871445

hidden_layer2.weight f4 [64, 128]
00000000: 3ff2 573e 15af c03b 9664 cf3d d0d4 20bc
00000010: 11a1 233e b627 ab3c 6b56 4dbe d9a5 673c
00000020: 0c54 263d c770 5e3d 9371 e5bc 9f27 ef3d
00000030: 8e3c 973d 93ff 80bd 50ea d23c ede5 2abd
00000040: ee63 c7bb e5b7 e43d 8305 8abc a39f 053e
00000050: 7135 a73e 7a6c df3c 1bf9 423b aec3 b83d
00000060: 66cd 023e 4c17 803d 8bb5 203e e9fa 25bd
00000070: d1db 48bc 88ce 8f3e d11f dd3d a2e4 7c3d
00000080: 0a5e 803b be46 833e b850 803d 477f f73d
00000090: 0c3a 533b fc7f 683d 790d e53d 7f41 ce3c
000000a0: 7f2e 8d3b 2626 d4bd 5011 ab3b 05f0 353c
000000b0: 58f7 9f3c ee99 c23d 6989 ae3d 1627 853b
000000c0: 4385 343e 088d 943e 1f5e 343d 25c0 5abd
000000d0: cc33 1b3e 4d01 103e 5a77 363d 98b1 083c
000000e0: b608 6abf 44e7 3b3e 71e2 9535 ab5a 03bc
000000f0: df92 ea3d 7441 613b f044 923e df22 8f3d
00000100: 41b3 8b3d bdf9 97bd e22e 3c3e 413f 03bc
00000110: 9352 6e3e 42df 143e 026b 943c bf21 ad3c
00000120: ece6 423e 5b2a 283e 7e88 13bd aa44 c73d
00000130: 185d 3c3d 1b86 a0b9 d06c a93c 231f d3b8
00000140: f840 f53d beb5 18bc 6ef4 d73b f3a9 253d
00000150: cb93 983e e400 fd3d 8942 3f3d 9f1c 04bc
00000160: f18d 763d f2e1 243d d80c 603d 8e3b ca3d
00000170: 76ee 32be 6ed4 e83c e2d8 fb3c 6ae5 eb3d
00000180: e755 293d 7d42 383e 3724 4fbe 847c 2a3e
00000190: 75dd 103e 9240 4d3d 8b99 303e 99a4 5bbc
000001a0: 1bf9 bdbd af08 873d adf3 813c 6643 f2bc
000001b0: ccad 933d c41c eb3d 9fc7 da3d 5f10 983d
000001c0: a492 b93d ffb9 503c c874 1a3d 20ef a23d
000001d0: a54a 793d 4d34 a73d 9d99 1f3d 15bc 623d
000001e0: 76e3 923d 4155 383e fc60 f63c 6247 c33d
000001f0: d56f 4bbd ecb6 673c 0ffc 30bb 5feb 5e3c
00000200: 3a86 ce3e 8a61 bd3d e555 193e c53b 8abd
00000210: 9a2f a23d f683 2bbd 7323 24be 1478 613d
00000220: 44cd 1f3d 3f0d 813d ccd9 afbc 8c01 133e
00000230: 5f47 593e 11e1 bb3b 3fbb 933c 90e7 af3d
00000240: 8f74 b53c 05e8 1e3e f627 9c3d 184f d33d
00000250: f5be d33d 4b23 213d 84c9 ccbc 92b4 71bb
00000260: 7070 043e 76bd 54bd 51a9 513e 2f75 013d
00000270: fdb5 c23c f718 893e 5d43 fa3b cd68 da3c
00000280: 8b10 5c3c e16c f53d b10e e83d 1a64 bb3d
00000290: e9de c13d 8436 233e e3c2 5d3d 33e1 92bb
000002a0: 56bd abbd fb29 873c 1173 243d a789 813d
000002b0: 2e5d 8d3c 1234 1f3e 968c b43d 297e 6b3d
000002c0: 7e03 c93d 3d2a 673e 1c0f c73c 9c90 cdbc
000002d0: 0425 463e 2036 bd3b bdde 283d fb5a 453c
000002e0: 2166 6bbf cc4e b43d 96b2 323c b7f2 bf3d
000002f0: 2346 003e d2f0 a03d 0c6a 8a3e c945 903d
00000300: 0ac8 fdbb d386 4d3c 57b3 c5bb c7c6 cd3c
00000310: 355e 5e3e 654e f83c a799 893c 918a 553d
00000320: a2a2 873e 2bd8 2d3e faba 47bc 44e2 ddbc
00000330: 0c5d e53c 3679 1f3d 5fe3 9b3c 9ed9 0cbd
00000340: df7a b33d d3e3 2e3e dd8b ac3d 27d1 993d
00000350: 3db1 a83e a38e 7e3c ceb7 a43d ddb4 b2bd
00000360: 299c 61bc 870f f43d e679 b83d 6edf c73e
00000370: 8cd6 e7be 7fd6 f73c 0bbe 62bc 2238 f03d
00000380: 8cbc 353e 2b62 2f3c dad9 13be c5ea 4bbb
00000390: fbe3 e73d 8d60 7f3c aee5 a53e 7883 c83d
000003a0: a211 45bd c259 903d c6de 6d3d 710d d33c
000003b0: 6ca1 bc3d ab1b 993d 9b03 073e ed6e 863d
000003c0: 272f 523e d724 333d 104a e7bb 8c9e 763d
000003d0: d040 01bd f457 c93c f700 9c3d f53a 2dbd
000003e0: f1e7 023d f77c 84bc d57f 9a3d 7a30 ab3d
000003f0: a05e 65bb 1078 89bc 3a14 1f3e 8598 32bd
0.21088503 0.0058802464 0.10126607 -0.009816363 0.1597941 0.02089296 -0.20052497 0.014138662
0.040607497 0.05430677 -0.028008258 0.11677479 0.07384597 -0.06298747 0.025746495 -0.04172318
-0.0060849106 0.111678876 -0.016848331 0.13049178 0.3265796 0.027273405 0.002975053 0.09021698
0.12773666 0.062544435 0.15694253 -0.04052249 -0.01225944 0.28087258 0.10797084 0.06174148
0.0039174603 0.2563991 0.06265396 0.12084823 0.0032230644 0.05676268 0.1118421 0.025177715
0.0043085213 -0.10358839 0.0052205697 0.011104588 0.019527122 0.09502016 0.08522303 0.0040634973
0.1762896 0.29013848 0.044035073 -0.0534059 0.15156478 0.14062996 0.044547416 0.008343123
-0.9141954 0.1834994 1.1167268e-06 -0.008017222 0.11453795 0.0034371288 0.2856822 0.06989073
0.06821299 -0.07420681 0.1837726 -0.008010686 0.23273687 0.14538291 0.018117432 0.021134255
0.19033402 0.16422407 -0.03601884 0.097298935 0.04598722 -0.00030617494 0.020681769 -0.00010067064
0.119752824 -0.009320674 0.0065904176 0.04044528 0.29800257 0.123536855 0.046694312 -0.008063464
0.06019396 0.04025454 0.05469975 0.098746404 -0.17473778 0.028421607 0.030743066 0.11518367
0.04134169 0.17994113 -0.20228659 0.16649061 0.14146979 0.050110407 0.17246072 -0.013405942
-0.09276029 0.06593453 0.015863264 -0.029573154 0.072108835 0.11480096 0.10682606 0.074249975
0.090611726 0.012739657 0.037709028 0.07955766 0.060862202 0.081642725 0.038964856 0.05535515
0.07172291 0.18001272 0.030075543 0.095350996 -0.0496672 0.014142733 -0.0027005707 0.0136059215
0.40336782 0.0924712 0.14974172 -0.067496814 0.079192355 -0.041873895 -0.16029148 0.055046156
0.039014116 0.063013546 -0.021466158 0.14356059 0.21218632 0.005733617 0.018033622 0.08589089
0.022150306 0.15518196 0.076248094 0.1031782 0.103391565 0.0393403 -0.024998434 -0.003688131
0.12933517 -0.051938497 0.20474745 0.031605896 0.02376842 0.2677686 0.007637425 0.026661301
0.0134316785 0.11983658 0.11330927 0.09149952 0.09466345 0.15938765 0.054140937 -0.0044824122
-0.08385722 0.01649951 0.0401488 0.06325083 0.017256346 0.15547207 0.08815877 0.057493363
0.09815119 0.22574706 0.024299197 -0.02509337 0.19350058 0.0057742745 0.041228045 0.012045617
-0.9195271 0.08804092 0.010906836 0.09372466 0.12526755 0.07858433 0.27034032 0.070445605
-0.007744794 0.012544352 -0.006033342 0.025119198 0.21715625 0.030310819 0.0167969 0.0521341
0.26491266 0.16976993 -0.012190575 -0.02708543 0.02799847 0.038933955 0.019029317 -0.034387223
0.0876367 0.17079096 0.08425114 0.07510596 0.32947722 0.015536937 0.080428705 -0.08725903
-0.013770142 0.11917024 0.09007625 0.3903765 -0.45280874 0.030253647 -0.013839255 0.117294565
0.17747706 0.010704557 -0.14438573 -0.0031115275 0.11322781 0.015586984 0.32401794 0.09790701
-0.04811252 0.0704837 0.05807378 0.025763245 0.09210476 0.0747598 0.13184969 0.06564126
0.205258 0.043736305 -0.0070583895 0.060209796 -0.03155595 0.024578072 0.076173715 -0.042292554
0.031959478 -0.01617287 0.07543913 0.083588555 -0.0034999028 -0.016780883 0.1553506 -0.043602485

hidden_layer2.bias f4 [64]
00000000: 72d0 cdbe b962 8abe 4a8f 7ebe 5d4a 99bd
00000010: 40cc 0fbd b81d 92be 0c61 43be afe6 12bf
00000020: 4b23 12bf c955 32bf 7297 ed3c 36d1 f13b
00000030: 72fb d7be 8878 1ebd 1b3f 7cbe 7b5f 20be
00000040: ffae 3b3f 7696 d53c 99fb f9bc 5e13 13bd
00000050: 425a bbbd 5b0e 0a3f c187 553f 41c0 cabe
00000060: d313 5fbe 271c d7be 857b 3e3f f1e9 b5be
00000070: 10d5 fd3e 314e 79be fea2 0dbf 8b2b 14be
00000080: efef 9b3f 9bcc dabd f693 e4be ce5f b7be
00000090: 765f dbbe 0f6d 483d c485 0fbe 1ae4 babe
000000a0: 9490 67be 4d38 e6be dd08 adbe 9b88 d3be
000000b0: 209f 51be ae9a debe ebac d8be 3ceb 0bbe
000000c0: b56e 54be 832e dbbe c516 aebe f7d9 d83f
000000d0: a23b efbe 27d3 c93e 7d89 443f 1f48 c1be
000000e0: 2a3e 15be 5d0e 8a3c fa7b 30be e940 8bbf
000000f0: 8439 ac3c 70cd fc3c cd67 aabe fe08 573d
-0.40198094 -0.27028444 -0.24859348 -0.07484887 -0.035106897 -0.285383 -0.19079989 -0.57383245
-0.570851 -0.6966215 0.029002879 0.007379676 -0.42184025 -0.038689166 -0.24633448 -0.15661423
0.733139 0.026072722 -0.030515479 -0.035907142 -0.09148075 0.53928155 0.8341027 -0.39599803
-0.21784906 -0.42013666 0.74407226 -0.35530046 0.49576616 -0.24346234 -0.5532683 -0.14469735
1.2182597 -0.10683557 -0.44644135 -0.3581528 -0.42846268 0.04893213 -0.14015871 -0.36502153
-0.22613746 -0.4496483 -0.33795825 -0.4131516 -0.20470858 -0.43477386 -0.42319426 -0.13663954
-0.20745356 -0.42808923 -0.34001747 1.6941518 -0.46725184 0.3941891 0.7677229 -0.37750337
-0.14574495 0.016852552 -0.17234793 -1.0879184 0.02102352 0.030859679 -0.3328232 0.05249881

hidden_layer3.weight f4 [32, 64]
00000000: a3fd 0c3d 9245 813d 60a9 f03d a14c 803d
00000010: 63df 39be 3708 173c 01c3 0b3d 075d 4d3e
00000020: fbbc bf3c 4315 88be d350 043e 5e6c 5fbd
00000030: 2d86 6a3d 0bd7 80be 807f 213e f612 ad3d
00000040: 82c0 9f3d 30c5 bfbd 2e47 a8be b6dc 6cbe
00000050: caf4 91be dd07 833e 1760 e03e 9101 af3c
00000060: 7710 92ba de9c b0be d4bf 693e a2f1 753d
00000070: 6417 7e3d 5cdf 9d3c d138 85bd 5777 723d
00000080: 5448 48ba 7478 503d fb86 a03d 247f 05be
00000090: e7e1 cd3c c16c ab3d e4d5 4b3d 92ee 9a3d
000000a0: 66b6 e03d 2a70 0abd 465a 7f3c f4d2 3a3b
000000b0: 1d54 3abe 4152 193d 9160 82be 8525 f0bd
000000c0: bedd 27be 447e 7ebe bfdd 143d ed63 273e
000000d0: f65c ed3c 0e1b eebb e94d b73c b9bd debd
000000e0: 9bba d8bd 1a8c 4ebd 465e 0cbd 162e 9a3e
000000f0: f7cc 04be 95fe e8bd 4d08 643c e3a9 aa3d
00000100: d4d2 e73c 0fd6 273d 8e8e b6bc 515c be3d
00000110: 4c4b 0ebd f71f a23d fd32 003e 17ce 9bbf
00000120: 7b91 b23d 3d5b a83c 2fa3 ab3c aad9 7e3d
00000130: 06b4 423c bd47 053d 0bd3 f93d 800e 343d
00000140: 7584 0cbe 5cee 023d 0c36 68bb 4b82 643c
00000150: 4d8f 433b 7479 613d 7b30 0cc0 54f3 283d
00000160: 171a 8e3d 47aa 6ebf 9318 09c0 eb7c a63b
00000170: 8fbc 0e3e 061d 953d c53c a7bc c2e6 013e
00000180: 7f0b d3be 5c9a 9b3d c11d 19bf 41c2 393d
00000190: 0b24 763c d828 673c 5183 d23d 9bf0 733d
000001a0: 8c89 113e 0a4e 943d 28fb 9c3d 3b55 813d
000001b0: ae85 c53c 9ae0 933d 06e0 4e3c 6b5b 813c
000001c0: 63c3 0f3d 0236 843d 7966 f63d b1a9 bdbe
000001d0: d496 d43c aabc 0c3d 5834 88be b4d6 9f3d
000001e0: 24b3 c73c d88a 7d3d af73 1bbd e13d 93bf
000001f0: 257f 1b3d fd31 60bc d55c 433d 1519 1b3e
00000200: 95e6 2bbc 63c6 b13a c8f0 3d3d 2953 5b3d
00000210: 0368 f4bc 6392 65bd ec4f 123d a80c a9bd
00000220: 63a2 d7bc a305 27bd fa57 e43b 5fbc 323c
00000230: 3229 57bc 78ad c1bd 2d9d 473d d26f b1bd
00000240: 9ab0 a8be 7255 c3bb f6cd 16bd 9d52 2fbd
00000250: 2374 29bd 7ad0 c73e 03c3 f63e 72e4 04ba
00000260: 2641 89bd 8806 babb 1fcf fe3e 3e0b f4bc
00000270: cbe2 14bd d43d 9f3c e762 9bbd f53b edbc
00000280: 5021 82be a86a c73c 1a61 aebd 2730 c5bc
00000290: 3c60 9a3c a3ee 953d 061f 76bd a3f9 083d
000002a0: 9c76 54bd de89 34bd 5e23 57bd b5fa c53c
000002b0: a23d 99bd 9c48 5ebd a3ec 4abd a2de f5bc
000002c0: faf6 cdbd a9c1 87bd b887 9dbc 46f8 96be
000002d0: ee14 683b 1e26 243d 1073 b43e 618e 22bd
000002e0: c1a4 b8bd 2b95 54bc 8076 eebd 13cf d53e
000002f0: 35d3 8bbd 9afa cfbc f065 2dbc 186a 12be
00000300: d370 4d3d f480 b1bc f992 663d 95ed 0f3e
00000310: 2b59 403c 838f 1b3d 9546 aa3d 9750 f5be
00000320: 481c aa3d 96f0 5f3d 688d 153e 278e 413d
00000330: 64c4 dd3d 070c 103d 0c59 973d 3728 e13d
00000340: e7c1 a8be e39c 11bc 0ed1 dd3c 6cef d83d
00000350: 8d61 263d 14f4 b3bb 670a fcbf 8f2a 98bc
00000360: cd8c 203d 924c 60be cee2 fabf 4297 473d
00000370: 3843 333e f28b a33c 3bab 9f3d 618c bd3d
00000380: 9e16 e2be 0811 e53d f7b7 8fbe 6b5a 103e
00000390: a92a 613d 5e83 123e 9a22 c73d 7798 bf3c
000003a0: d5bf b03d 9fba 823d 1d4f 6e3d 9387 0f3e
000003b0: 3b83 9a3d f944 ba3d b6fe 463c bfe1 9a3b
000003c0: 8f82 c53b 8c0a dc3c bfc0 183c f6e5 ffbe
000003d0: a92d a03d d044 493d 3e3a f4be 67e5 623d
000003e0: e35b ac3d d8e3 a4bb b056 823d 1867 d0be
000003f0: b819 093b f2a1 7d3d 76cd 433d 6ab7 1a3e
0.034421574 0.063120976 0.11751056 0.06264616 -0.18151622 0.009218267 0.034121517 0.20055018
0.023405543 -0.2657872 0.12921457 -0.054546706 0.057256866 -0.25164065 0.15771294 0.08450882
0.0780039 -0.093637824 -0.32866806 -0.2313107 -0.28507072 0.25591937 0.4382331 0.021363052
-0.0011143823 -0.3449468 0.22827083 0.060044892 0.062034026 0.019271545 -0.065049775 0.059195843
-0.0007640172 0.050896123 0.078382455 -0.13036782 0.025132133 0.083703525 0.04976453 0.07565035
0.1097229 -0.033798374 0.015585488 0.0028507086 -0.18196149 0.03743196 -0.254643 -0.11725906
-0.16393182 -0.24852854 0.036344286 0.16346712 0.028974991 -0.0072664088 0.022376018 -0.108760305
-0.10582467 -0.05042658 -0.034269594 0.30113286 -0.12968813 -0.11376683 0.013917995 0.083331846
0.028298773 0.040975627 -0.022284772 0.09294952 -0.034739777 0.07916253 0.1251945 -1.2172269
0.087191544 0.020551318 0.020951835 0.0622193 0.011883741 0.032539118 0.121984564 0.04395914
-0.13722403 0.0319656 -0.0035432605 0.01394708 0.0029840053 0.055047467 -2.190459 0.04124768
0.0693857 -0.9322857 -2.142125 0.0050808094 0.13939117 0.072809264 -0.02041472 0.12685683
-0.41219708 0.07597801 -0.59811026 0.04535127 0.015023242 0.014108859 0.10278953 0.05955563
0.14212626 0.07241447 0.07665092 0.063150845 0.024111595 0.07220574 0.012626654 0.015790662
0.035098445 0.06455614 0.12031264 -0.37043527 0.025950827 0.03435961 -0.26602435 0.07804623
0.024377413 0.06189999 -0.03795212 -1.1503259 0.03796305 -0.013683793 0.047695953 0.15146287
-0.010491987 0.0013563152 0.046372205 0.053546105 -0.029834753 -0.05604781 0.03572075 -0.08254367
-0.02632255 -0.04077686 0.0069684954 0.010909169 -0.01313238 -0.09456915 0.04873388 -0.08663906
-0.32947236 -0.0059611136 -0.036817513 -0.042803396 -0.041370522 0.39026242 0.48195657 -0.00050694414
-0.06701879 -0.005677048 0.49767396 -0.029790517 -0.0363491 0.019438662 -0.075872235 -0.028959254
-0.2541604 0.02434285 -0.085146144 -0.024070812 0.018844716 0.07320907 -0.06008818 0.033441197
-0.051870927 -0.044076793 -0.052523963 0.024167398 -0.07482459 -0.054268464 -0.04954208 -0.030013386
-0.10056873 -0.066287346 -0.019229755 -0.29486293 0.0035412866 0.040075414 0.35244036 -0.039686564
-0.09015799 -0.012975018 -0.11643696 0.41759548 -0.06827394 -0.02538805 -0.010583386 -0.14298284
0.050156426 -0.021667935 0.056292508 0.14055474 0.011740009 0.03797866 0.08314244 -0.47913048
0.083061755 0.0546728 0.14604723 0.047254708 0.10828474 0.03516772 0.07390031 0.109939985
-0.32960436 -0.008887502 0.027077224 0.10592541 0.040620375 -0.005491743 -1.9690675 -0.018574981
0.039196778 -0.2190421 -1.9600465 0.048728235 0.1750611 0.019964192 0.077963315 0.09255291
-0.4415788 0.11184889 -0.28070042 0.14096992 0.054972325 0.14307925 0.097233966 0.02338813
0.08630339 0.063832514 0.058180917 0.14016561 0.075445615 0.09095187 0.012145689 0.004726618
0.0060275267 0.026860498 0.009323298 -0.49980134 0.07821209 0.04913789 -0.47700685 0.055394556
0.084159635 -0.005032044 0.063641906 -0.40703654 0.002091987 0.06192202 0.047803365 0.1510903

hidden_layer3.bias f4 [32]
00000000: 5377 8c3f 7f3c db3f bca6 ab3f 1d9e ce3f
00000010: 32a4 d73f 7c00 bd3f c986 743f 761e a63f
00000020: 97f9 bc3f 3257 7e3f bb80 b83f 1018 d53f
00000030: a777 2e3f 5aab 76be d6e0 e03f 912f c83f
00000040: a046 bc3f 020d bc3f ff74 8c3f 3286 d13f
00000050: b366 9f3f cc03 c43f cb08 583f ac3a cf3f
00000060: b749 c73f fd05 cd3f ba65 5b3f 0f14 6dbe
00000070: 259b da3f ea66 ad3f b9c3 8b3f b777 8c3f
1.0973915 1.7127837 1.3410258 1.6142002 1.6846983 1.4765773 0.95518166 1.2978046
1.4763669 0.993518 1.4414285 1.6647968 0.68151325 -0.24088803 1.7568614 1.5639516
1.4709053 1.469147 1.0973204 1.6369078 1.2453216 1.5313659 0.84388417 1.618978
1.5569371 1.6017452 0.857021 -0.23152183 1.7078596 1.3547032 1.0919105 1.0974034

output_layer.weight f4 [1, 32]
00000000: 7c8c f3be cce6 b53d 25a6 03bf 5337 883d
00000010: 3a49 743d 1cd8 823d 0394 02c0 1637 cbbe
00000020: 7256 7a3d 7212 f7be 7065 c5be 3efc 843d
00000030: 1996 833e cdfc 93ba c3f7 873d e39e 863d
00000040: 213e c5be 4d9d 933d 1331 37bf 37a8 943d
00000050: aa43 2b3e 3c88 783d 2bfd 663e 0b9d 883d
00000060: 6572 9f3d 8eba 9b3d 82b9 febe 889d 0bbc
00000070: 1db2 803d 2448 ef3d 665d 7bbf d51c 3dbf
-0.4756812 0.08881912 -0.5142539 0.06651177 0.059640147 0.06388876 -2.040284 -0.39690465
0.061117597 -0.4825626 -0.38553953 0.06493424 0.25700453 -0.001129055 0.06639054 0.06573274
-0.38523963 0.07207737 -0.71559256 0.07258647 0.1672503 0.0606768 0.22557513 0.066705786
0.07785491 0.07603942 -0.49750906 -0.008521445 0.062839724 0.116836816 -0.9818939 -0.7387212
