streamlit/best_regression_model_huber.pth (torch, 84005 bytes, 7 tensors)

hidden_layer1.weight f4 [128, 74]
000000 08 8b 20 3d d1 a4 9d 3e a0 18 af 3b f7 62 de 3e
       0.03919509 0.30789807 0.0053435117 0.4343488
000010 15 ac 99 3d 23 7c 58 3a b5 b8 2c bf 03 b6 1f bf
       0.07503525 0.0008258244 -0.6746934 -0.623871
000020 b2 e2 cc 3d de 13 dc 3d 02 1f 18 3e bb d7 0a bc
       0.10004176 0.10745977 0.14855579 -0.008474286
000030 b1 9e 4a 3e dc f7 80 3e 3d 3c 47 3d 20 24 82 be
       0.19787098 0.25189102 0.048641432 -0.25418186
000040 7c 6a 1a 3d 86 1f 87 be 7a d6 23 3b 2a 22 68 bd
       0.037699208 -0.26391238 0.0024999664 -0.056673206
000050 ba ec a8 3c 54 ec 8f 3d d1 d5 ca bd 02 34 04 3e
       0.020620693 0.07027498 -0.099040635 0.12910464
000060 3d 06 62 3e 96 26 20 bc a0 8b 97 3d 04 ef f9 3c
       0.22072692 -0.009774825 0.07399678 0.03050948
000070 ef 9d 83 3c 2a d9 f1 bd 82 ab 3d 3d ca 88 6e be
       0.01606652 -0.11808999 0.04630614 -0.23294368
000080 d6 ab b5 3d 1e c3 19 3e 59 74 dc 3c e1 01 38 3e
       0.08870666 0.15015838 0.026910948 0.17969467
000090 d7 45 07 3e 1f dc 32 3e c4 8d a8 3d 23 74 73 3d
       0.13210236 0.17466782 0.08230165 0.05943693
0000a0 70 52 09 bd ad c5 1d 3e 97 da 72 3b b2 d5 46 bd
       -0.033525884 0.15407439 0.003705656 -0.04854364
0000b0 06 95 32 be cd 1c 81 3d 31 82 17 be 04 8a 3e bc
       -0.1743966 0.063043214 -0.14795758 -0.011629585
0000c0 7b 21 b3 3d fd cf 62 bb 1a 6b d1 3d 9c 0b b8 3d
       0.0874662 -0.0034608834 0.10225506 0.08986589
0000d0 89 d8 77 bc 93 da a6 bc 3e 8f 37 bc 0b b8 f8 3d
       -0.01512731 -0.020367896 -0.011203585 0.121444784
0000e0 46 27 22 be 23 6e 4e be d3 9a b2 3d 80 40 a9 3c
       -0.15835294 -0.20159201 0.087209366 0.020660639
0000f0 03 d2 02 3e d1 f6 c3 3d 13 b1 33 3d ef 51 34 3b
       0.12775426 0.09568561 0.043870043 0.0027514657
000100 67 81 02 3e fd 99 75 bd 93 03 00 3e 74 57 9c bd
       0.12744676 -0.059961308 0.12501363 -0.07633868
000110 b0 3f d4 bd 14 3d 4b 3d f3 70 25 3d 57 51 c1 3d
       -0.1036371 0.049618796 0.04039092 0.094393425
000120 c2 09 38 3c de 29 62 3d 51 ab 6f 3c e1 7e 38 3f
       0.011232795 0.05521571 0.014628247 0.720686
000130 3d e9 35 3c 0c d7 60 3f 01 6a 36 be e8 6a e9 3c
       0.011102972 0.87828135 -0.17813875 0.02849336
000140 cc 28 48 bd 7c b9 9d 3c 17 62 e5 bc 22 de f2 3c
       -0.048867032 0.019253485 -0.028000874 0.029646937
000150 24 94 c9 bc 61 f7 1d 3e 66 41 be 3d 8d c4 9a be
       -0.024606772 0.15426399 0.092898175 -0.3022808
000160 0a 5a 28 be aa 0e 02 3e 11 be 84 3d 74 d1 04 3d
       -0.16440597 0.12700906 0.06481565 0.032426313
000170 3c 74 f7 bc 8c e1 3b bd 99 58 da 3d a1 fa be 3d
       -0.030206792 -0.045869395 0.1066143 0.093251474
000180 2a fc a2 3d f9 cb b0 3d 92 78 13 3e 2c 34 c5 3d
       0.07958253 0.08632655 0.14401463 0.096290916
000190 2d 75 45 bd f1 b0 d0 3d ce ab aa be 74 bf 65 3e
       -0.04820745 0.10189999 -0.33334202 0.22436315
0001a0 4e f1 93 bd 34 07 12 3e 0b 27 a7 bd f6 61 78 bd
       -0.072237596 0.1426056 -0.08161744 -0.060640298
0001b0 83 e3 e2 ba 06 90 d8 bc dc e0 32 3e 4d 72 71 bd
       -0.0017310235 -0.026435863 0.1746859 -0.058946896
0001c0 21 6b fb 3d 51 e0 0b 3b 96 55 e1 bd 1a c9 a6 ba
       0.122762926 0.002134342 -0.11002652 -0.0012724728
0001d0 7f b1 4b bd 27 06 59 3e 0e 60 d0 bc c1 0a 3f bd
       -0.04972982 0.21193753 -0.025436427 -0.046641115
0001e0 ae 51 c3 3b c4 26 54 3e 9d 84 19 3d 2c 05 a1 3d
       0.0059606647 0.20717913 0.037479986 0.078623146
0001f0 f3 0c fe 3c 11 b4 9f ba 36 3a 46 3e e3 99 8f bc
       0.031012034 -0.0012184401 0.19358143 -0.017529434
000200 30 db 26 3e 70 e2 12 bd 91 d8 e3 3d be 4b 55 bc
       0.16294551 -0.03586048 0.11125291 -0.013018547
000210 b4 28 cb bd b6 92 01 bd 33 f1 96 3d 16 d8 9e 3d
       -0.09919873 -0.031634055 0.07370224 0.07756059
000220 aa dd 6d bc dd 0e 7f 3d 5d c7 1e 3d 92 da 8d bc
       -0.014518181 0.062270034 0.038764346 -0.017316137
000230 39 b5 88 bc 35 91 96 3d 95 ff bf bc 9a e3 24 3d
       -0.016687976 0.07351915 -0.0234373 0.04025612
000240 ea 34 97 bd 93 71 84 3d 77 72 87 ba a2 2b e6 3c
       -0.073831394 0.06466975 -0.0010333796 0.028096978
000250 77 bc cc bb 83 3a 9a 3e af 6e c0 3c d8 af 45 3f
       -0.0062480527 0.30122766 0.023490278 0.7722144
000260 84 7b c7 3c 3b 83 44 bd a7 9b 33 3e aa 0b a0 bb
       0.024350889 -0.047976714 0.17539845 -0.004884203
000270 1c 57 61 3b c8 d2 2e 3d ab 20 f0 bd c5 e1 60 be
       0.0034384197 0.042681485 -0.11724981 -0.21961124
000280 19 fe a3 3d 3f 29 db bd 4c 8c dc 3d 66 ed 29 3e
       0.0800745 -0.107012264 0.10768947 0.16594467
000290 21 03 09 be 31 a8 23 be e4 06 0f 3e 6f 4e 18 3e
       -0.133801 -0.15982129 0.13967472 0.1487367
0002a0 84 51 0b 3e e7 e7 9f 3d b5 0b 17 3e 6c 1c d3 3c
       0.13605314 0.07807904 0.1475056 0.025770389
0002b0 77 9d 18 3d c2 97 ab bd 3e 3c 9c be 9a 0b 0d 3e
       0.037259545 -0.08378555 -0.3051471 0.13773957
0002c0 72 76 9b be 91 84 fb 3b 9c c1 8e 3d df 73 a5 3d
       -0.30363804 0.0076757153 0.06970522 0.08078741
0002d0 c6 86 9c 3d 77 e7 d9 3c de 79 42 3e 9e 23 5e 3d
       0.076428935 0.026599629 0.18991801 0.054233186
0002e0 fc d0 c4 be d7 98 2f 3d f1 be 71 3d 97 31 a7 3d
       -0.38440692 0.04287037 0.059019987 0.081637554
0002f0 8d a0 85 be 01 54 30 be 01 14 3a 3e 77 75 81 be
       -0.26099053 -0.17219545 0.18171693 -0.2528493
000300 55 1d 87 be 16 a3 4f 3d 25 b7 1a bc 17 3f ac 3c
       -0.26389566 0.05069264 -0.009443079 0.021026177
000310 08 f2 57 3d 74 7e 0b 3e 9e c9 6c 3e 77 0b fc bd
       0.052721053 0.13622457 0.23123786 -0.12306874
000320 52 4f 49 3e 96 65 8c 3d e8 d9 d9 bd a6 05 05 be
       0.19659165 0.068553135 -0.106372654 -0.12990436
000330 f8 8b 61 bd 69 df a0 3d b3 11 21 bd e8 42 8a 3d
       -0.055065125 0.07855112 -0.03932352 0.067510426
000340 0b f7 d8 3c c8 dc e8 3d c0 83 55 be d4 4e f9 3c
       0.026484987 0.11370236 -0.2085104 0.030433096
000350 0c fc c9 3d 85 05 e5 3d 15 8b 06 bc 32 55 ca bc
       0.09862527 0.111826934 -0.008211871 -0.024698827
000360 af be 7f 3c 0f 70 88 3d 26 38 59 3e 54 48 89 bc
       0.015609427 0.066619985 0.21212825 -0.016758122
000370 9e 64 a9 bc 54 17 8c bb d8 8e 6b 3d eb 9a 6f 3e
       -0.02067786 -0.004275242 0.057509273 0.2339894
000380 94 cc 04 bd f1 21 3b 3f 82 90 d0 3c ab 53 ed bc
       -0.032421663 0.73098665 0.025459532 -0.02897056
000390 f2 8c bb bd 88 22 2e be 50 e8 40 bd f7 30 81 3d
       -0.091577426 -0.1700536 -0.04709655 0.063081674
0003a0 7a 63 54 bd ae 06 6f be 52 94 44 be 32 33 8e 3e
       -0.05185268 -0.23342392 -0.19197205 0.27773434
0003b0 8a 4e c3 bd ca 17 7d bd 80 fc 5a be da a7 2e be
       -0.095364645 -0.061790265 -0.21385384 -0.17056218
0003c0 5f e0 07 3e 08 64 f9 3d 4d 03 2e 3e e9 2d 0b 3e
       0.13269185 0.121772826 0.16993447 0.13591732
0003d0 6e f1 2e be fc 32 31 bd 0a 81 8d bc 47 31 9d 3d
       -0.17084286 -0.043261513 -0.017273445 0.076754145
0003e0 c3 d3 c3 bd fe ce b8 bd 5d ee 14 3d 69 78 f5 3c
       -0.09561875 -0.090238556 0.036360133 0.029964643
0003f0 08 dc d0 3d a8 3a ee 3c c2 37 7d 3d 74 17 11 bc
       0.10198218 0.029080704 0.061820753 -0.008855689

hidden_layer1.bias f4 [128]
000000 80 ed 09 bf d8 fb 08 bf b8 e2 9f 3d 0e db 7f be
       -0.5387802 -0.53509283 0.07806915 -0.24985906
000010 f7 df b2 bf d7 9e c4 be c4 93 c8 3d 33 b6 40 bd
       -1.3974599 -0.38402435 0.09793809 -0.04704876
000020 a6 d5 e6 be 62 bf 11 bf 09 e7 be be 9d b8 9a be
       -0.45084876 -0.5693265 -0.3728564 -0.30218974
000030 47 88 b7 be 44 58 5a be c4 cf 81 be 9a de a5 be
       -0.3584616 -0.21322733 -0.25353825 -0.32396394
000040 1e 84 21 bf 8d 45 0f bf eb 47 91 bc 73 8b df bd
       -0.6309222 -0.559655 -0.017734488 -0.1091527
000050 9d 4d cf bd 8a b5 6e bf de d1 a2 bf c8 d3 22 bf
       -0.101222254 -0.93245757 -1.2720296 -0.636044
000060 34 78 0c bf fd 37 97 bf a1 23 0b be 6b 87 2c bf
       -0.54870915 -1.1813961 -0.1358781 -0.6739413
000070 6f 6c 83 bf d8 37 ef be d4 f0 aa 3d 7b 6f 2b bf
       -1.0267466 -0.46722293 0.083467156 -0.6696698
000080 5d 9d 49 be 8c a7 3a 3e 2b a9 aa be 9a d1 ae bf
       -0.19688936 0.18227977 -0.3333219 -1.3657715
000090 91 bb 2e be 09 df b8 bf ea de f1 3b 89 2d f4 3c
       -0.17063738 -1.4443065 0.0073813098 0.02980687
0000a0 47 ad ab 3e ec a2 e0 be 8e 30 36 be e5 81 5d bf
       0.33530638 -0.438743 -0.1779196 -0.8652633
0000b0 5d 8c 5b be ff 89 c9 bf 94 25 e8 be 30 a9 94 bf
       -0.21440263 -1.5745238 -0.4534117 -1.1614132
0000c0 be 2f f3 3d b8 23 af 3b 35 31 50 bf d5 54 ab bd
       0.118743405 0.005344834 -0.81325084 -0.0836579
0000d0 6c b6 57 be bc df 08 be f4 66 3d be 26 d3 f1 bf
       -0.21065682 -0.13366598 -0.18496305 -1.8892562
0000e0 9e ff 98 bf 24 95 f7 be d4 91 d6 be bd d9 6a bf
       -1.1953008 -0.48355973 -0.41908133 -0.9173849
0000f0 4c 7e cb be 88 37 63 be e6 b6 17 3e 09 c8 55 bf
       -0.39744794 -0.22189152 0.14815864 -0.83508354
000100 3a 40 aa bc 65 dc 2c bf 95 d8 11 bf 2d d1 03 bf
       -0.020782579 -0.67523795 -0.569711 -0.5149105
000110 ec 18 71 be 8d 0f d8 be d4 56 93 bf b3 48 83 bd
       -0.23544663 -0.42199364 -1.1510873 -0.06410351
000120 2d d8 a2 bf 5b 5a 30 bf f7 c2 f7 be 3a a9 3b bf
       -1.2722222 -0.6888787 -0.48390934 -0.73305094
000130 32 14 0a bf e5 54 97 bf 99 f1 35 be 89 02 4d bf
       -0.53937066 -1.1822783 -0.17767943 -0.80081993
000140 86 30 7e bf b2 c3 ab 3d b2 fc 66 be 9d e2 99 bf
       -0.9929279 0.08386935 -0.22557333 -1.2022282
000150 f4 9b 2f bf 3c 5b 4e 3e 29 00 99 3e 9c 05 0f bf
       -0.6859734 0.2015199 0.29882935 -0.55867934
000160 82 bb 9b bf ef 28 ac bf 73 50 29 bd 7a 75 a3 be
       -1.2166598 -1.3449992 -0.041336488 -0.31925565
000170 22 78 fe be 6e 13 e5 be fa 16 db be 3b dc 1f bf
       -0.4970103 -0.44741386 -0.42790967 -0.6244542
000180 38 63 12 3e 8a 87 6f bf 0f f9 c6 be a8 fb c1 bf
       0.14295661 -0.9356619 -0.38861892 -1.5154924
000190 0a 64 cd bf c2 00 6a be cd f0 ab bf 3c c6 f0 be
       -1.6046154 -0.22851852 -1.3432862 -0.4702624
0001a0 ff 50 33 bf ee c6 9a be 2f 8a 35 bf 36 c4 ae be
       -0.70045465 -0.30229896 -0.70913976 -0.34134072
0001b0 b0 5e 68 3e 46 2f 27 be 65 2a c3 bf f3 20 b4 bf
       0.2269237 -0.16326627 -1.5247313 -1.4072555
0001c0 b6 b8 2b bf 93 4b ca bf 52 17 43 3e ed b0 a8 bf
       -0.6707872 -1.5804313 0.19051865 -1.3178993
0001d0 3d be a7 bf 14 58 aa bb f8 8c 22 bf 50 36 85 be
       -1.3104931 -0.005198488 -0.6349635 -0.26018
0001e0 9b bb 1b 3e 9d 7f d0 bd 5c b7 c5 be 32 92 90 bf
       0.15208285 -0.1018059 -0.38616455 -1.1294615
0001f0 51 fa d2 bf 11 59 d7 bd b3 df d9 bf 3e 99 a6 bd
       -1.648264 -0.10515035 -1.7021393 -0.081346974

hidden_layer2.weight f4 [64, 128]
000000 2e 2e ec 3c c9 2e 1c 3e 8d 55 af bc 9d 14 83 3d
       0.028830614 0.15252222 -0.021403098 0.06400416
000010 ea 8e a2 3e 06 4c 39 3d f1 86 32 3c 97 79 90 3d
       0.3174966 0.045238517 0.01089643 0.070544414
000020 fe ab d4 3d 0e 8c 42 3c fb 30 45 3a 31 6d 91 3d
       0.103843674 0.011874212 0.0007522252 0.07100905
000030 ee c4 97 3d 60 1c 65 3d eb fc 08 3e 5d 03 f5 3c
       0.07410608 0.055935264 0.1337773 0.02990883
000040 b6 c5 53 3e 6d 9d 8a 3e d0 86 a7 3d 94 4d 17 3d
       0.2068089 0.2707323 0.0818001 0.03693922
000050 bb 5a 8d bd 67 3d 23 3e ae a5 62 3e 84 34 e0 3b
       -0.06902071 0.15941392 0.22133514 0.006842198
000060 b0 55 63 3d ad 48 91 3e fc 44 d7 3c 9b a6 c7 bc
       0.05550164 0.2837576 0.026278012 -0.024371436
000070 fd 1d 35 3e 27 d0 2d 3e 64 64 57 3d 37 80 94 3c
       0.17687221 0.16973935 0.052585974 0.018127544
000080 fc 29 c7 3c a8 ce 93 3d 84 77 cc 3d ad 6c b2 3e
       0.024312012 0.07217151 0.09983733 0.34848538
000090 4d 92 27 bd f9 b4 2a 3e 94 35 13 3e 07 ab dc 3d
       -0.040911008 0.16670598 0.14375907 0.107748084
0000a0 44 ff 96 3d 9d b0 8b 3d cf 6d 84 3c d0 6e d9 3d
       0.07372907 0.06820796 0.016165642 0.10616839
0000b0 13 b3 ea 3c 14 ca 14 3a c3 6b 27 3e 42 26 12 3e
       0.028649842 0.0005675864 0.16349702 0.14272407
0000c0 92 4a 90 bd 56 51 09 bb 13 0b 55 3c 8e 1b f0 3d
       -0.07045473 -0.002095302 0.013003129 0.11724006
0000d0 90 43 11 3e 08 99 1f 3e 40 dd f3 3d e6 43 f1 be
       0.1418593 0.1558572 0.119074345 -0.47122115
0000e0 26 5a 9b 3d bf c3 38 bd 08 68 83 3d e1 4f f6 3d
       0.07585554 -0.045108553 0.06416327 0.120269544
0000f0 35 55 39 3e ae 50 0c 3c 63 3d 6d bd 20 ac a8 3d
       0.1809891 0.008564157 -0.05791987 0.08235955
000100 6f d9 d6 bb 92 aa 4d 3d 56 e7 19 bd f6 2b 99 3d
       -0.006556682 0.050211497 -0.037574135 0.07479088
000110 53 bb f0 bc d9 f1 d7 3d 73 e9 96 3d e0 da 13 bd
       -0.029386198 0.10544176 0.07368746 -0.036097407
000120 8c d7 81 be 64 ec 1f 3e 33 a2 13 3d 0f 98 78 3c
       -0.25359762 0.1561752 0.036043357 0.015172972
000130 10 cb 38 bd 98 5f 2e 3e d6 8f 14 bb 53 77 24 3e
       -0.04511553 0.17028654 -0.002266874 0.16061144
000140 1e 50 8a ba 9a fd 56 3d e8 d0 04 3c 7b 41 78 bd
       -0.0010552441 0.052487947 0.008106448 -0.060609322
000150 aa 75 a9 bd 05 b2 06 3e ab 82 93 3b a6 dc 55 3e
       -0.08274396 0.13153847 0.004501661 0.20884952
000160 b3 d0 60 3e ac 46 ac 3e 83 c8 1b 3b 7a d8 79 3d
       0.21954612 0.33647668 0.0023770637 0.060997464
000170 2c 26 d9 3c 1f 24 81 3d 7d cc 29 3e 73 b8 94 3d
       0.02650746 0.06305718 0.16581912 0.072617434
000180 16 42 96 3c c2 00 2c 3e 2c 09 81 3d 61 5e ae bc
       0.01834206 0.16797164 0.063005775 -0.021285238
000190 c1 f2 4e 3d 84 e1 02 bc b0 bc b8 3e bf 5a 8c 3d
       0.050524477 -0.007988337 0.36081457 0.06853246
0001a0 32 dd 2e 3e a9 4e e1 bc d2 20 68 3d 1b ac b5 3d
       0.17076567 -0.027503328 0.056671925 0.08870717
0001b0 2f d2 4a bd 48 f8 81 3d c3 e0 2b 3e 35 4a 02 3d
       -0.049516853 0.06346184 0.16784959 0.03180905
0001c0 8d 87 85 3b 5a 45 34 bc d5 89 2c 3d c3 76 94 3e
       0.004074997 -0.011002863 0.042123634 0.28996858
0001d0 34 0d 78 3e 58 92 58 3e 93 0a b3 3c 87 64 06 bd
       0.24223787 0.21149576 0.021855628 -0.032810714
0001e0 d9 c3 33 3c 2d fc fb 3d 2f d4 9e 3d 65 71 cf be
       0.010971987 0.12303958 0.077553146 -0.405162
0001f0 ea 89 64 3d 3b 5a 3d bc bd 7f 02 3f f1 d0 0b bc
       0.055795588 -0.011557157 0.50976163 -0.008533702
000200 8b 6e 1b 3d 0d 84 ca 3c 75 a5 cf 3b 06 7c 0a bd
       0.03794722 0.02472117 0.0063368627 -0.033809684
000210 60 ec f5 3d 83 9e 98 bd ec ff 91 b9 28 05 97 bd
       0.120079756 -0.07452109 -0.00027847232 -0.0737403
000220 45 3c 3d bc c6 c4 01 3d 64 32 95 bc 8e 48 eb 3c
       -0.011550014 0.0316818 -0.018212505 0.02872112
000230 4b 88 7a b8 77 ff a4 3c 31 a4 34 3b b0 24 5a 3d
       -5.9731577e-05 0.020141346 0.0027563686 0.053257644
000240 67 e4 e6 3c 6a 2d f0 bd 90 19 92 3a 87 1c 12 3d
       0.028185083 -0.11727412 0.0011146534 0.035671737
000250 d7 a3 d7 3c 5c d3 26 bc 46 a1 97 3c 40 2e c8 bc
       0.026323242 -0.010182228 0.018509518 -0.024436116
000260 18 d6 ff 3d e8 7e 10 3e df 04 0a 3d 7e fb 0f 3e
       0.12492007 0.14110911 0.03369605 0.1406078
000270 3a b3 0d 3e 50 c6 4c bd f3 5c 69 3c 13 47 80 3e
       0.13837901 -0.049993813 0.014243352 0.25054225
000280 2b b5 7b bd 27 8c 44 3d 4a 1a 52 3d 75 79 e6 bd
       -0.061452072 0.047985222 0.051294602 -0.11253635
000290 59 85 a8 3d e7 51 f4 bb d5 72 76 3c cc 5a 1f bd
       0.08228559 -0.0074560526 0.0150420265 -0.03890495
0002a0 c1 61 32 3c 02 a0 f8 3c 63 6a ed bb c8 6d 81 3e
       0.010887564 0.030349735 -0.0072453483 0.2527907
0002b0 b3 cf a1 bc 49 72 f8 bf e1 ef 08 bd a5 bb 98 3e
       -0.019752359 -1.9409877 -0.03343189 0.2983066
0002c0 48 03 d8 3c 79 84 d7 3d b8 cf ed 3d 8a 45 5b 3d
       0.026368752 0.10523314 0.11611885 0.053533114
0002d0 87 04 a0 3c 73 60 8e bc 18 3e 89 3d 52 a7 62 bf
       0.019533409 -0.017379975 0.067012966 -0.8853656
0002e0 bd 5f 42 3e bb 18 3c 3e 0c 70 a6 3d 67 48 75 3d
       0.18981834 0.18368809 0.0812684 0.0598835
0002f0 e2 67 17 3c e2 ad a5 3c b7 87 56 3d f8 92 26 3e
       0.009241076 0.020224515 0.05237552 0.16267002
000300 b2 40 13 3d 96 05 ab 3d 98 de b4 bf 36 15 a4 bc
       0.03595037 0.08350675 -1.413043 -0.020029645
000310 ee b9 a5 3d 45 1c 7c 3d 50 b4 55 3e 5c 87 a2 3c
       0.08092104 0.061550397 0.20869565 0.019839935
000320 ef fd 26 bf b1 36 b7 3d 69 a0 71 3d cd 93 41 bd
       -0.6523122 0.089459784 0.05899087 -0.047260094
000330 4f 6a 6c 3d a6 38 a5 3c 0d 20 00 3e 93 cc 10 be
       0.05771857 0.020168614 0.12512226 -0.14140539
000340 27 51 19 bd c6 1b 20 3d bb 88 8d bc dc f8 01 3e
       -0.03743091 0.039088987 -0.017277112 0.12692589
000350 95 a6 6d 3d f1 05 80 bc a8 1c 35 3d a5 59 ee bd
       0.058020193 -0.015627833 0.04421678 -0.11638192
000360 3b f6 19 3e 38 3e 3c 3d 4f 91 a0 bd fe 61 41 3d
       0.15035336 0.045957774 -0.078402154 0.047212593
000370 0d 7c 0a 3e 0c 5f 5f 3d 40 84 37 bd 73 8f 93 3c
       0.13523884 0.054534003 -0.044803858 0.018012738
000380 4f b0 12 bd 5f d8 ea bc 9e 09 a7 3c ea 21 ef bf
       -0.035812672 -0.028667627 0.020390328 -1.8682225
000390 16 ce d7 bd e6 55 9b 3c cd 21 ed 3d d3 c9 52 3d
       -0.10537355 0.018961858 0.115787126 0.051462006
0003a0 58 9d a1 3d 98 ec 8f 3d 07 e2 b2 3c a0 f5 01 be
       0.07891339 0.070275486 0.021836294 -0.12691355
0003b0 e7 78 a2 3b 8a 3e 27 bd c2 dd bd bd 1d d9 0d 3d
       0.0049582603 -0.040831126 -0.092708126 0.034630883
0003c0 8b ad 37 3d a4 0d 05 c0 a4 73 81 3d 71 75 23 bd
       0.044843238 -2.0789576 0.06320885 -0.039906923
0003d0 7d 20 2b 3b cc bc 4f bc 72 72 91 3d 9a 10 7e 3d
       0.0026111894 -0.01267929 0.07101907 0.06202755
0003e0 e7 44 5b 3d 56 e3 b5 3b 47 6f b8 3c e7 d9 07 3e
       0.053532507 0.005550782 0.022513999 0.13266717
0003f0 98 74 71 3e 03 b4 1b bd ec 85 18 3e 17 7f 02 3e
       0.23579633 -0.03801347 0.14894837 0.12743793

hidden_layer2.bias f4 [64]
000000 90 20 b4 be ef f8 2f 3e 48 26 ea be fa df 87 3e
       -0.35181093 0.17184804 -0.4573233 0.26538068
000010 91 f4 84 3a ce 6c f9 be a5 28 f6 3e 0d f7 1a bd
       0.0010143687 -0.48715824 0.48077884 -0.037833262
000020 92 d9 0d bf fd ce 18 3e a9 59 9b 3f b6 8b 02 bd
       -0.5541011 0.1492271 1.2136737 -0.03187152
000030 82 09 33 3f 4c d5 07 3d 1f fb 80 bd 09 39 6f be
       0.6993638 0.0331624 -0.062978975 -0.23361601
000040 ae 21 b5 be f6 e0 73 3d 7f 76 70 3e 89 d7 21 3f
       -0.35377258 0.05954071 0.23482703 0.63219506
000050 20 28 c3 3d 9e be 9d be 18 51 29 3e 8c 17 08 3f
       0.095291376 -0.30809492 0.16534841 0.5316093
000060 34 7c 0d 3d 7b 66 1c bf 89 88 5d 3f 3c 3c 49 3d
       0.034542277 -0.6109387 0.8653646 0.04912971
000070 16 3c 0c bf 74 01 95 3e 7c 93 5a 3c fc ad c8 be
       -0.54779184 0.2910267 0.013340827 -0.3919524
000080 48 24 33 3c 46 d8 9f bd 40 a2 39 bc 70 17 08 bd
       0.010933943 -0.07804923 -0.011330187 -0.033225477
000090 45 3f c3 3d d9 e8 36 bd ea 9a ea 3e c2 e4 27 be
       0.09533552 -0.044655655 0.45821315 -0.16395858
0000a0 d8 58 cb bd 9b ea df 3d 8c 3d 79 3c 54 b7 30 3c
       -0.09929055 0.10933419 0.015212428 0.010785896
0000b0 ec d5 24 bf aa a2 d0 be 42 29 21 be 24 27 44 bf
       -0.6438892 -0.40749103 -0.15738395 -0.76622224
0000c0 43 da 2e 3f b6 ad 62 bd fb 3b 5c bf 89 c5 92 3c
       0.6830179 -0.055341445 -0.8602902 0.017916458
0000d0 ba 78 aa 3d 8b 36 32 be 1e e9 73 3e 22 4c bd 3e
       0.08323808 -0.17403619 0.23819396 0.36972147
0000e0 ab 9f 1a bc 02 0e 67 3f e1 44 bf 3e 32 13 05 3e
       -0.009437482 0.9025575 0.37357238 0.12995604
0000f0 07 58 a5 3e 06 c6 43 bd 8f f7 dc be 59 0c 14 be
       0.32293722 -0.04779627 -0.43157622 -0.14457835

hidden_layer3.weight f4 [32, 64]
000000 5d 3b dd bb 26 f0 d0 3c 01 01 41 bc 33 f3 c7 3d
       -0.0067514614 0.025505137 -0.0117800245 0.097631834
000010 e8 e6 f1 bc b1 7a 16 3d e3 1e 29 3e d0 21 95 3c
       -0.02952905 0.0367381 0.16515689 0.0182046
000020 d5 b7 a2 3c 89 27 d8 3c 9d f2 3b bf 95 14 3b 3d
       0.019863049 0.02638604 -0.73417073 0.045673925
000030 3a 99 a3 3d 2b cd 8c bb 4c dd 3c 3b a1 7d 78 3d
       0.0798821 -0.004296919 0.0028818427 0.060666684
000040 00 0b b5 3a bf 5f c5 3a 3b 8a 81 3d 04 c1 ce 3c
       0.0013812482 0.0015058442 0.063251935 0.025238521
000050 a5 ed 50 3d 94 79 48 c0 81 d8 8d 3e b2 c1 76 3d
       0.051007885 -3.1324205 0.27704242 0.060243316
000060 98 5e 99 3b e7 de 0e 3d 85 23 72 bf 89 ee 79 bd
       0.004680466 0.034880545 -0.9458545 -0.0610185
000070 10 a0 5f 3d dc 42 2c 3e 43 d1 2b bc 1c a5 8b 3e
       0.054596007 0.1682238 -0.010486904 0.27274406
000080 9d 3e 26 3c 55 5d 99 3d 66 ce b9 3d 5c a0 92 3b
       0.010146764 0.07488505 0.090725705 0.0044746827
000090 fa 0a 3b 3c 06 43 3a 3c c9 11 09 bd a6 4b f6 3d
       0.011416191 0.011368519 -0.033464227 0.120261475
0000a0 2c 0d c2 bc 9e f7 73 3d 08 b2 f3 3b 76 1e 69 3c
       -0.023687921 0.059562318 0.0074369945 0.014228454
0000b0 a9 57 2d c0 ed 5b f8 3c dd 24 b7 3c 7f 90 02 bc
       -2.7084754 0.030317271 0.022356445 -0.007969021
0000c0 f7 55 8b 3e a9 36 a4 3c 1c 7e 2d c0 6e 24 8e 3c
       0.27214023 0.020045595 -2.710822 0.017351355
0000d0 28 3b a8 3c a1 1c 29 b7 10 f7 5c bd 39 c2 7d 3d
       0.02053602 -1.0079851e-05 -0.053946555 0.061952803
0000e0 58 d5 7f 3c 53 08 5e bf 35 de 32 c0 a1 38 1c 3d
       0.01561483 -0.8673145 -2.7948124 0.038139943
0000f0 e3 5c cc 3e 82 47 0c 3e b5 55 9e bc cc e0 71 3c
       0.39914617 0.13699153 -0.019327978 0.014763068
000100 e9 92 e4 3b 78 b7 42 3e ff 41 d0 bc da de 83 bd
       0.006975521 0.190153 -0.025422094 -0.0643899
000110 e5 92 74 bc b1 bc 2b bd fc f2 0b be 69 35 91 bd
       -0.0149276005 -0.041927997 -0.1366691 -0.07090265
000120 4f 2b 60 bd b4 ca d2 bd f3 fe f0 3e f1 ed dd bc
       -0.054728802 -0.10292569 0.4706951 -0.027090998
000130 8c d0 1d bb ba a8 16 be 89 48 34 bc d2 8e fd bd
       -0.0024080602 -0.14712802 -0.011003622 -0.123807564
000140 93 bc c0 bc 89 0e 95 bc d1 f5 c6 bd 32 b9 dc 3d
       -0.02352742 -0.018195407 -0.097148545 0.10777511
000150 d7 7c fa 3d 65 5b 0f 3e d9 bd a5 3d 6d e1 b2 3c
       0.122308426 0.13999708 0.08092851 0.021836007
000160 61 82 b7 bc da f1 99 bd cc 21 ac 3e a5 30 bd 3d
       -0.022401037 -0.07516833 0.33619535 0.09237794
000170 e1 e1 4c be 1e 25 24 be 2e 16 b7 bb f4 40 b6 bd
       -0.20008041 -0.16029784 -0.005587361 -0.088991076
000180 74 51 bd bb 21 3f 0d be 3f 95 02 be 19 3f 50 bb
       -0.0057775322 -0.13793613 -0.12752245 -0.003177589
000190 95 52 b2 bd b4 ab 9f bd e3 58 23 3e 41 e3 33 be
       -0.087071575 -0.07796422 0.15951876 -0.17567159
0001a0 4f da 77 39 01 66 4c bd 86 12 b2 3b c1 3a ae bb
       0.00023637082 -0.049901966 0.005434337 -0.0053170626
0001b0 00 48 98 3e bb 86 e2 bc 1d bc 95 bd 33 94 c3 bd
       0.29742432 -0.027652135 -0.073112704 -0.09549751
0001c0 86 03 1e 3d 4e 67 1f bc 0a 57 a2 3d 6c bd d4 3b
       0.03857758 -0.00972922 0.07926758 0.0064923074
0001d0 b3 c4 0e bd 12 e3 d8 3b ae f2 91 3d 7c 5f 6b 3d
       -0.034855556 0.0066188658 0.071263656 0.057464108
0001e0 77 c8 f0 bb 62 fb de 3e 39 88 40 3d ba 5e 31 be
       -0.007348116 0.43551165 0.047004912 -0.17321292
0001f0 04 2c b2 bd 97 10 ca bd 95 3a 07 bd 76 89 70 bd
       -0.086998016 -0.098664455 -0.033014853 -0.058724843
000200 b4 30 56 3d 80 fb 2d 3e 5d d7 3b 3d c3 3a db 3d
       0.05229254 0.16990471 0.045859683 0.10704567
000210 ad 74 70 3d 80 3d 82 3a f2 3a 59 3e 13 36 a1 3d
       0.05870502 0.0009936541 0.21213892 0.07871642
000220 59 e3 99 3d 0c a6 0c 3e e6 71 7a bf fd 54 23 3e
       0.07514066 0.13735217 -0.97830045 0.15950389
000230 91 26 27 3e ab 1a cb 3d 37 68 76 3c fc 2a 7f 3d
       0.16323306 0.09917196 0.015039495 0.062296852
000240 94 ec bb 3d 17 cc 15 3d a2 81 d3 3b ff 74 d9 3d
       0.09175983 0.03657159 0.0064546624 0.10618018
000250 45 7e c8 3d bc 40 f5 be 0f 8f b9 3e 59 4e 6a 3d
       0.09789709 -0.4790095 0.36241958 0.057203624
000260 07 bc 48 3d 9d 1a 12 3d 32 9a 82 bf d3 a3 7a 3e
       0.04900744 0.03566991 -1.0203307 0.24476556
000270 6c 0e 61 3d dd d9 49 3e fc e1 d5 3d ee 2f c9 3e
       0.054945394 0.19712014 0.10443494 0.3929438
000280 5f ca 83 3c 4f 31 47 3e 4b 0a 69 bd 03 ca a5 3c
       0.016087709 0.19452403 -0.05689458 0.020237928
000290 a1 b5 de 3d 1d 04 d3 3d 4b ea 1f 3e f4 8c e6 3d
       0.10874487 0.10303519 0.1561672 0.112573534
0002a0 10 f0 a4 3d 1b d2 33 3c a3 e6 ca 3c 83 09 9d 3c
       0.08053601 0.010975386 0.02476818 0.019169575
0002b0 68 97 ae be c8 72 4b 3d 2b 66 9c 3d 69 de 4a 3d
       -0.3409989 0.04967001 0.076366745 0.049528513
0002c0 5c 3b 34 3e 0a a9 e3 3c 36 bc cf be d8 5e 89 3c
       0.17600769 0.027790565 -0.4057328 0.016768858
0002d0 ee 3a 5f 3d f7 d0 3d 3c 0d b0 3a 3e 6c 35 c0 3e
       0.05449956 0.011585466 0.1823122 0.37540758
0002e0 57 d5 4a 3d 1e 95 8d bf 5f 3a 16 bf 06 73 77 3e
       0.049519863 -1.1061132 -0.5868282 0.24164972
0002f0 e6 d8 53 3e 7f 5f 37 bc 2d 5d 52 3e 14 39 9e 3d
       0.20688209 -0.011192202 0.20543356 0.077257305
000300 1b 83 a2 bc 67 ea 40 3e ee 44 06 bd b4 21 8d 3d
       -0.019837907 0.18839417 -0.03278058 0.06891194
000310 0b 07 8f bd cf a1 bb bd 8c 48 bc bd 89 8d 61 3b
       -0.06983765 -0.09161722 -0.09193525 0.0034416637
000320 d9 46 a4 bc e1 bd d7 bd 69 1d 30 3f ca 67 7c bd
       -0.020053314 -0.105342634 0.68794876 -0.06162242
000330 e2 b5 08 3b f3 f6 bc bd 6e b5 12 bd c2 df 18 bd
       0.0020860364 -0.09226789 -0.035817556 -0.037322767
000340 5e 7d db bc c1 52 33 bd a3 5f 2e bd 08 53 8c 3c
       -0.026793178 -0.043780092 -0.042571675 0.017129436
000350 9d 2e 10 3e d1 32 7e be 00 a7 40 3d ab a7 84 bc
       0.14080282 -0.24824072 0.047034264 -0.016193232
000360 98 2c 98 bd e2 96 32 bd 11 7a 89 3e 80 1f 10 3d
       -0.074303806 -0.043600924 0.26850942 0.03518629
000370 96 57 91 bc 58 d2 d7 bd c2 42 37 bd a4 d9 36 3e
       -0.01774196 -0.10538167 -0.0447414 0.17856461
000380 e0 f9 88 bc 37 71 ba bc c7 50 55 bd 4a 87 68 3b
       -0.016720712 -0.022759063 -0.05207899 0.003548103
000390 89 fa d5 bd ce 8e 7a bd 56 7c e8 3d df 19 6f bd
       -0.104481764 -0.061171345 0.1135184 -0.058374282
0003a0 2e 10 67 bd 22 fd c2 bd 39 d2 f8 37 2c c0 4f bc
       -0.056411915 -0.095209375 2.9661796e-05 -0.012680095
0003b0 1b 3a 6f be 05 e8 43 bd 2a 0b 63 3c eb 36 69 bd
       -0.23362009 -0.047828693 0.013857642 -0.05693714
0003c0 95 93 93 3d d5 52 61 bc 63 3a ab be 4e ec 84 bc
       0.072058834 -0.013752659 -0.33442983 -0.01622596
0003d0 f6 0d e4 bc 4c f8 85 bc 48 30 d2 3c d9 99 5e bc
       -0.027838688 -0.016353749 0.025657788 -0.013586485
0003e0 7f 99 75 bc a4 2d f1 3e 22 86 92 3f a4 7f 22 be
       -0.01499021 0.47105134 1.1447184 -0.15869004
0003f0 ea 8f 59 3c 56 da 88 bd a4 56 34 bd d7 67 af bd
       0.013278941 -0.06682269 -0.04402794 -0.08564728

hidden_layer3.bias f4 [32]
000000 ce 16 e9 ba 11 42 88 3f 27 03 18 3f d7 ac 8f 3f
       -0.0017783286 1.0645162 0.5937981 1.1224622
000010 44 e2 1d 3f d6 c0 98 3e 22 c6 91 3f 62 c9 8f 3f
       0.6167338 0.29834622 1.138859 1.1233332
000020 df 32 bb 3e ea 03 95 3f 3e f7 06 3f e9 ce e2 3e
       0.3656225 1.164182 0.5272101 0.44298485
000030 83 3f 9a ba 0b 0d 16 3f fa 2d 86 3e c2 0a f0 3e
       -0.0011768196 0.5861365 0.26206952 0.46883208
000040 e8 fd 39 3e 8f 38 0d bd e2 46 d3 3e 8d 51 13 3f
       0.18163264 -0.034477767 0.41265017 0.5754631
000050 b8 b4 c0 3e be 3a 2d 3f 48 a7 39 bd 4e de 8b 3f
       0.37637877 0.6766776 -0.045325547 1.0927217
000060 ab c2 e9 3e f3 b6 8a 3f 62 b3 f1 3e 5c 35 94 3f
       0.45656332 1.0837082 0.4720717 1.1578784
000070 22 4b 7c 3f 19 64 10 3f 37 3e ca 3e cf b3 bd 3e
       0.98552144 0.56402737 0.3950059 0.37051246

output_layer.weight f4 [1, 32]
000000 ad 71 30 3e c5 0b e3 be b5 12 36 3d a8 72 da be
       0.17230864 -0.44344917 0.044451434 -0.426656
000010 b1 e1 81 3d 92 4f f2 3d 6d 6e 2f bf 5e 15 62 bf
       0.06341875 0.11831583 -0.6852787 -0.88313854
000020 9c cb 49 3d bc ff d6 be d2 4b 4c 3d 72 0e 55 3d
       0.049266443 -0.41991985 0.049876995 0.05201573
000030 45 66 3f 3e 1c 18 a2 3d fd 50 00 3e 2b bb 3f 3d
       0.18691356 0.07914755 0.12530895 0.046809357
000040 4e 41 55 3d 85 2d 67 3d 12 5c 60 3d 73 bf 49 3d
       0.052064233 0.056439895 0.054775305 0.049254846
000050 20 49 56 3d 4e 50 fa bf d4 f0 6a 3d 47 a3 f4 be
       0.05231583 -1.9555757 0.057358578 -0.4778082
000060 ed 61 4d 3d 89 98 14 bf 2e 34 41 3d 08 f3 03 bf
       0.050142217 -0.5804525 0.047168903 -0.5154271
000070 5f ea 06 bf a6 c0 90 3d e6 d6 51 3d ec 03 d3 3d
       -0.5270137 0.07067995 0.051230334 0.103034824
